Exercise/best_model.pth (torch, 274722 bytes, 12 tensors)

fc1.weight f4 [64, 784]
0	0x3d171ae7	0.03689089
1	0xbbc9a41d	-0.006153597
2	0xbd02c276	-0.031923734
3	0x3bf122d3	0.0073588877
4	0x3d10b183	0.03532554
5	0x3b2a094a	0.0025945478
6	0x3d0d7545	0.034535665
7	0x3b3556f7	0.0027670243
8	0x3d122cc2	0.035687216
9	0x3b6c0f89	0.0036020002
10	0x3c516390	0.012780085
11	0xbcbcfb0d	-0.02306893
12	0xbcc6722c	-0.024224363
13	0xbb957a43	-0.004561694
14	0xbcdbf59e	-0.026850518
15	0xbcf4208f	-0.029800681
16	0xbbf1e01b	-0.007381452
17	0x3b2fee2d	0.0026844845
18	0xbb1023bf	-0.0021993963
19	0x3c22a625	0.009927307
20	0xbc67aafc	-0.014139887
21	0x3b74ddd6	0.003736367
22	0x3c83d15c	0.016091041
23	0xba645734	-0.0008710504
24	0xbb657cae	-0.0035016942
25	0xbbe2a159	-0.006916207
26	0x3d1654cd	0.036701966
27	0xbcf06692	-0.029345784
28	0x3d1efbae	0.03881424
29	0x3cc820e0	0.024429739
30	0x3c868046	0.016418587
31	0x3cad4f9b	0.021156123
32	0xbcaf9384	-0.021432646
33	0x3cfac60a	0.03061201
34	0xbcbfcb42	-0.02341235
35	0xbc6e29f0	-0.014536366
36	0x3b4c0ad0	0.0031134374
37	0x3c0dd184	0.008655909
38	0x3d1acfe8	0.03779593
39	0xbc163655	-0.009168227
40	0x3d8dd4fd	0.0692539
41	0x3d1d0062	0.038330443
42	0x3d136374	0.035983518
43	0x3d30d6ab	0.043173473
44	0x3d8fe850	0.07026732
45	0x3ce9d55d	0.028544122
46	0x3d221793	0.039573263
47	0xbca9cba1	-0.02072698
48	0x3d4834ea	0.048878588
49	0x3d091251	0.033464734
50	0xbce4db1a	-0.027936507
51	0x3cd76edd	0.02629798
52	0x3cf88469	0.030336576
53	0xbc4cd6e8	-0.0125024095
54	0xbbc122f9	-0.0058940616
55	0x38666023	5.4925807e-05
56	0x3d108126	0.035279416
57	0xbca8504e	-0.020546105
58	0x3cbb45e6	0.022860479
59	0xbb1fe1b0	-0.0024395995
60	0x3c650fa7	0.013980783
61	0x3cbf85bf	0.023379205
62	0x3b9bb5de	0.004751905
63	0x3c46bb7d	0.012129662
64	0x3d4edb1f	0.05050194
65	0x3c6d0045	0.014465396
66	0x3d2b3e9f	0.041807767
67	0x3d5ba383	0.053622734
68	0x3dcedcaa	0.10100682
69	0x3d6a04a0	0.057133317
70	0x3d589646	0.052877687
71	0x3d528bf3	0.051402997
72	0x3ca9478f	0.020664005
73	0x3c41b406	0.011822706
74	0xbc972c48	-0.018453732
75	0x3d33439c	0.04376565
76	0x3d29ace0	0.041424632
77	0x3d1cd7a1	0.038291577
78	0xbc91fd9a	-0.017821122
79	0xbc919bdb	-0.017774513
80	0x3cfb6fdb	0.030692985
81	0x3b4d4e9a	0.0031327368
82	0xbbe56d84	-0.0070015807
83	0xbcaa838b	-0.020814678
84	0x3cfa33d6	0.030542295
85	0xbc9e5b81	-0.019330742
86	0x3cf37ab0	0.029721588
87	0xbb9fde75	-0.004878814
88	0xbc6164b2	-0.013756918
89	0x3d349e26	0.044096135
90	0x3d03c91e	0.032174222
91	0x3cb27a85	0.021786937
92	0x3d9d6831	0.076858886
93	0x3dc7fe62	0.097653165
94	0x3d3918b4	0.045189574
95	0xbce6d19c	-0.028176121
96	0x3ad07d31	0.001590645
97	0x3d1daaf9	0.03849313
98	0xbd0dabac	-0.034587547
99	0xbda92a12	-0.082599774
100	0xbd99e723	-0.07514789
101	0xbce02cd6	-0.02736513
102	0xbc7ce9c2	-0.015436592
103	0x3ce3af1d	0.027793461
104	0xbbdf6dc3	-0.0068185045
105	0xbc31f6e6	-0.010862088
106	0xbc96383e	-0.018337365
107	0x3d34574e	0.044028573
108	0xbc7f1f38	-0.015571408
109	0xbcef5708	-0.029216304
110	0x3caed8bc	0.021343581
111	0x3cf6880c	0.03009417
112	0x3bfeb727	0.0077732983
113	0x3c83def1	0.016097518
114	0x3cc779fa	0.024350155
115	0x3cd12ded	0.025534594
116	0xbc9c5b3e	-0.019086476
117	0x3d206dc2	0.039167173
118	0x3dd2cbc3	0.10292771
119	0x3d2511ac	0.040300056
120	0x3c4d8fbe	0.012546478
121	0xbd112e82	-0.035444744
122	0xbcde0107	-0.0271001
123	0x3d25903d	0.04042076
124	0xbcfbc800	-0.030735016
125	0xbaf7b996	-0.0018899913
126	0xbd375afa	-0.044764496
127	0xbd4fe43c	-0.05075477
128	0xbdfa4a98	-0.12221259
129	0xbdad5e68	-0.08465272
130	0xbde36191	-0.11102594
131	0xbd0e3f25	-0.034728188
132	0xbd05b7dd	-0.03264605
133	0xbdb82c70	-0.08992851
134	0xbd88b846	-0.06675772
135	0xbdbed478	-0.09317869
136	0xbdc43fbe	-0.0958247
137	0xbcdba4a1	-0.0268119
138	0xbd00990c	-0.031395957
139	0xbc8cdb40	-0.01719439
140	0x3cc0ec19	0.02355008
141	0xbbb1cf88	-0.005426351
142	0xbce47870	-0.02788946
143	0x3cb24b9d	0.02176457
144	0x3d90386f	0.07042014
145	0x3d4cead3	0.050028633
146	0x3d55ebe0	0.0522269
147	0x3b2c1dd9	0.0026262908
148	0x3c256468	0.0100947395
149	0xbb54c5c4	-0.003246651
150	0xba866b9e	-0.0010255461
151	0xbd16cb4a	-0.036814965
152	0xbd691cfd	-0.05691241
153	0x3d4c709a	0.049912073
154	0xbd52a4f2	-0.051426835
155	0xbcdb093b	-0.0267378
156	0xbde7234d	-0.1128603
157	0xbda50d9d	-0.08059237
158	0xbe003c72	-0.12523058
159	0xbd936262	-0.071964994
160	0xbde3a10b	-0.11114701
161	0xbdc58296	-0.09644048
162	0xbdeb82d4	-0.11499563
163	0xbdcbe772	-0.09956254
164	0xbde002de	-0.10938047
165	0xbd06b717	-0.03288945
166	0xbb6e6a6d	-0.0036379353
167	0x3cdabcd0	0.026701361
168	0xbcfe842c	-0.031068884
169	0x3c76ecf8	0.015071146
170	0xbc5cb593	-0.013471025
171	0x3d70e1b6	0.058809005
172	0x3d8b289c	0.06794855
173	0xbd530549	-0.051518712
174	0x3cbcbabc	0.02303826
175	0xbcd27779	-0.025691735
176	0xbd7e3149	-0.06205872
177	0xbd9062f0	-0.07050121
178	0xbd00d013	-0.031448435
179	0x3d3a0976	0.04541918
180	0xbc3012ac	-0.010746639
181	0x3cc98b52	0.024602566
182	0xbc87bd23	-0.01656968
183	0xbd6c29ce	-0.057657056
184	0xbd053f75	-0.03253122
185	0xbdcc6b44	-0.09981397
186	0xbdcbc6cf	-0.09950029
187	0xbe4c7e15	-0.19969971
188	0xbe4e3ac0	-0.20139599
189	0xbe3ef75f	-0.18649052
190	0xbe587904	-0.21139914
191	0xbe0e4bf4	-0.13896161
192	0xbe218879	-0.15774716
193	0xbcd0b32f	-0.025476066
194	0x3b8ee133	0.004360342
195	0x3ce4cafb	0.02792882
196	0xbcb0949c	-0.021555237
197	0x3d1727f6	0.036903344
198	0xb98b4d55	-0.00026569763
199	0x3d8873f4	0.06662741
200	0x3d34b4c6	0.04411771
201	0xbe121ce3	-0.14268832
202	0xbc781e14	-0.01514389
203	0xbd5929d6	-0.053018413
204	0xbd718e89	-0.058973823
205	0xbd8ad565	-0.06778983
206	0xbc6dcbcd	-0.014513922
207	0x3da87ef2	0.08227338
208	0x3d67615e	0.05648934
209	0x3d608c2e	0.054821186
210	0x3da167fb	0.07881161
211	0xbd590fa5	-0.052993435
212	0xbe1893c8	-0.14900124
213	0xbe5e7690	-0.21724916
214	0xbe264234	-0.16236192
215	0xbe846def	-0.25865123
216	0xbe7d5af9	-0.24741735
217	0xbe36385b	-0.17794935
218	0xbe838bd1	-0.2569261
219	0xbe534b55	-0.20634206
220	0xbd56ecf2	-0.052472062
221	0xbbb29b84	-0.005450668
222	0xbd18c661	-0.037298564
223	0xbc72c462	-0.014817329
224	0xbc8a49f5	-0.016880969
225	0xbcb0cb70	-0.021581382
226	0xbbc048e7	-0.0058680656
227	0x3d1bf5c1	0.038076166
228	0xbd2d23e2	-0.04227055
229	0xbe0f1307	-0.13972102
230	0xbdb8643f	-0.090034954
231	0xbd7bf8e9	-0.061516676
232	0x3ba9742a	0.0051713185
233	0xbd17ff69	-0.037108812
234	0x3cd6b70b	0.026210329
235	0x3cbf4ecf	0.023353009
236	0x3dbd1109	0.09231765
237	0x3e4ee019	0.20202674
238	0x3e38cbe6	0.18046531
239	0xbd953a7c	-0.07286546
240	0xbe853185	-0.26014343
241	0xbe82e5c3	-0.2556592
242	0xbdf77f9e	-0.12084888
243	0xbde952da	-0.11392756
244	0xbe38e6fb	-0.18056862
245	0xbe7d84f4	-0.24757749
246	0xbe68d73e	-0.22738358
247	0xbe0fb2e5	-0.14033087
248	0xbd874183	-0.06604292
249	0xbdf5396d	-0.11973844
250	0xbc25bc47	-0.01011569
251	0x3c83911e	0.016060408
252	0x3c11036b	0.008850913
253	0xbcbf728a	-0.023370046
254	0x3c7ac124	0.015304837
255	0xbc398140	-0.0113223195

fc1.bias f4 [64]
0	0x3c269df2	0.010169493
1	0x3c8fd979	0.017559754
2	0x3cb924c1	0.022600533
3	0x3aea2927	0.0017865048
4	0xbcc42e0a	-0.023947734
5	0x3ca63685	0.020289669
6	0x3c0c005e	0.008545009
7	0xbb9ae288	-0.0047267117
8	0x3b7c70ba	0.0038519339
9	0xbc5785bd	-0.013154444
10	0x3b16c85f	0.0023007614
11	0xbb403129	-0.0029326177
12	0x3c08c40e	0.008347524
13	0x3c9540dc	0.018219404
14	0xbc827896	-0.01592664
15	0xbd22a690	-0.039709628
16	0xbc28a031	-0.010292099
17	0x3aff5538	0.0019480353
18	0xbb3be2bc	-0.002866908
19	0xbce0b121	-0.027428212
20	0x3c4d765b	0.012540425
21	0x3cc8b92e	0.024502363
22	0xbc1ddecf	-0.009635641
23	0xbd275fab	-0.04086272
24	0xbb95c77c	-0.0045708995
25	0x3d3ab682	0.04558421
26	0xbd0852a3	-0.033281934
27	0x3ca298f9	0.019848334
28	0x37b6321f	2.171943e-05
29	0xbb788da2	-0.0037926217
30	0x3cd27528	0.02569063
31	0x3998d939	0.00029153543
32	0x3d092ead	0.03349178
33	0x39c0fead	0.00036810842
34	0xbd1d7c3b	-0.038448554
35	0x3b266fb5	0.0025396172
36	0xbd197631	-0.03746623
37	0x3b3552d1	0.002766777
38	0xbc0943f6	-0.00837802
39	0x3d2e8b11	0.042613093
40	0xbd5ed311	-0.054400507
41	0x3cde5bfd	0.027143473
42	0xb78bb53c	-1.6654485e-05
43	0x3cff8094	0.03118924
44	0xbb8fa33b	-0.0043834723
45	0xbbb7cb27	-0.0056089344
46	0xbc9eebef	-0.019399611
47	0xbc0f682b	-0.008752863
48	0xbd1bbcc5	-0.03802182
49	0xbd2c19f0	-0.042016923
50	0x3cb49ecc	0.022048377
51	0xbcc47c9c	-0.0239852
52	0xbb1080d1	-0.0022049437
53	0xbcc73b01	-0.024320127
54	0x3b854e55	0.004068176
55	0x3c5169ee	0.012781603
56	0xbcb9a849	-0.022663252
57	0xbc48029f	-0.012207656
58	0xbc6d22d3	-0.014473635
59	0x3cfce1ad	0.03086933
60	0xbce40b8f	-0.027837543
61	0xbc1570c0	-0.00912112
62	0xbca103a4	-0.019655056
63	0x3d49d64e	0.049276643

blocks.0.fc1.weight f4 [64, 64]
0	0x3ccd949f	0.025095282
1	0x3e0c3fa1	0.13696148
2	0xbda1539a	-0.07877274
3	0x3dcf5122	0.10122897
4	0x3de5bf43	0.11218121
5	0xbd2dd9c5	-0.04244401
6	0x3db2110e	0.08694659
7	0xbdfe8e10	-0.1242944
8	0xbdcc9148	-0.09988648
9	0xbcbc1491	-0.022959026
10	0xbd712be0	-0.058879733
11	0x3c2dbd19	0.010604166
12	0xbd1a2fb8	-0.037643164
13	0x3db89825	0.09013394
14	0xbd99dcc1	-0.075128086
15	0xbde01300	-0.10941124
16	0xbd4e45f9	-0.0503597
17	0xbe05bd26	-0.13060436
18	0xbd5b6826	-0.05356612
19	0xbae0fc4d	-0.0017165035
20	0xbc445533	-0.011983204
21	0xbd0577d9	-0.032585
22	0xbdf077e4	-0.11741617
23	0xbddb4d31	-0.107080825
24	0xbd8a3787	-0.06748872
25	0xbc21465c	-0.009843435
26	0xbe426224	-0.1898275
27	0x3db3e14c	0.08783206
28	0xbd8be7ca	-0.0683132
29	0xbdd24907	-0.10267835
30	0xbd9a0a6e	-0.075215206
31	0xbe435e51	-0.19078948
32	0x3ca3e0d6	0.020004671
33	0xbc974d34	-0.01846943
34	0x3cbfd89d	0.023418719
35	0x3cdec174	0.027191855
36	0xbe0d5ea0	-0.13805628
37	0x3dd7ef7c	0.10543725
38	0x3d8a6a06	0.067585036
39	0xbdfb7053	-0.122772835
40	0xba5e57aa	-0.0008481691
41	0x3d87cdea	0.06631072
42	0x3e14b650	0.14522672
43	0x3d880443	0.06641438
44	0x3d4b1ea3	0.049589764
45	0xbd9780b7	-0.07397597
46	0x3d061d02	0.032742508
47	0x3dfdbd63	0.12389638
48	0xbb6f7a52	-0.0036541414
49	0x3d830344	0.06397107
50	0xbbcb1ce4	-0.0061985124
51	0xbe6bb4df	-0.23018216
52	0x3d70a0c4	0.058747068
53	0x3d8fdb25	0.070242204
54	0xbd529de8	-0.051420122
55	0xbd74289d	-0.059609044
56	0xbd274783	-0.040839683
57	0x3d08b01e	0.033371083
58	0x3cfff99b	0.03124695
59	0x3d9020be	0.07037495
60	0xbe490bed	-0.19633456
61	0xbddccc95	-0.107812084
62	0xbd967ca2	-0.073479906
63	0x3de87e4f	0.113522165
64	0xbdc3405a	-0.095337585
65	0x3cc12a5a	0.023579765
66	0xbd88bb55	-0.06676356
67	0x3c34aaa7	0.011027015
68	0x3d1e6963	0.038674723
69	0xbd940b10	-0.072286725
70	0xbdf9936b	-0.12186321
71	0x3d9a5d4f	0.075373285
72	0xbd6bde8b	-0.05758528
73	0xbdaa5fcf	-0.08319055
74	0xbd48fc1e	-0.049068563
75	0x3d68b30e	0.056811385
76	0xbdf1ad37	-0.11800616
77	0x3db799ae	0.08964859
78	0xbc2e5525	-0.010640417
79	0x3e45e2c0	0.1932478
80	0x3a3569fc	0.0006920395
81	0xbdfe9206	-0.124301955
82	0xbcd20ff2	-0.025642369
83	0x3dbf019a	0.09326477
84	0x3d72e0fb	0.05929659
85	0x3c2dbdcb	0.010604332
86	0xbe585d4b	-0.21129338
87	0xbdfbdb5e	-0.122977
88	0xbe36ccd1	-0.17851569
89	0xbd879f0f	-0.06622135
90	0xbd2d680c	-0.042335555
91	0x3d4d9b75	0.050197084
92	0x3e2cab92	0.16862324
93	0x3df32f49	0.11874253
94	0x3d85d49e	0.06534694
95	0xbd1c14b1	-0.03810567
96	0x3da00392	0.07813181
97	0xbe232729	-0.15932907
98	0x3ca16426	0.019701075
99	0xbcdf1e2d	-0.027236069
100	0xbe10a1e9	-0.14124264
101	0xbe1d233d	-0.15345474
102	0x3e222be1	0.15837051
103	0xbd302e3a	-0.043012835
104	0xbe049e80	-0.12951088
105	0x3da264b1	0.079293616
106	0x3e133ca7	0.14378606
107	0xbd32a8a7	-0.04361787
108	0xbcd2685c	-0.025684528
109	0x3dbb6a16	0.09151094
110	0xbd923dc5	-0.07140688
111	0x3bb69203	0.005571605
112	0xbe4396a5	-0.19100435
113	0xbdb1468d	-0.086560346
114	0x3c6698c8	0.014074512
115	0xbdc73937	-0.0972771
116	0xbe4e58ed	-0.2015111
117	0xbdd2fa2f	-0.10301625
118	0x3df18df2	0.11794652
119	0x3dfa7fc6	0.12231402
120	0xbcb07c8c	-0.021543764
121	0xbd565f93	-0.05233724
122	0x3cbb695d	0.02287739
123	0xbdc86eb4	-0.0978674
124	0x3c481c4e	0.01221378
125	0xbd2af462	-0.041736968
126	0x3cc760a6	0.024338078
127	0xbd942de1	-0.07235313
128	0x3c0ab0c9	0.008465
129	0xbe303f2a	-0.17211595
130	0x3d51465a	0.051092483
131	0xbd370f21	-0.044692162
132	0xbdb2a487	-0.08722787
133	0x3d649f96	0.055816256
134	0xbdd13c80	-0.102166176
135	0xbd8823c3	-0.06647446
136	0xbe3c9d8e	-0.18419477
137	0x3c4a77ff	0.012357711
138	0xbd7ca7e1	-0.06168354
139	0xbd24d8db	-0.040245872
140	0x3cbce307	0.023057474
141	0x3c45810c	0.012054693
142	0x3d67f1f3	0.056627225
143	0xbd1f88cd	-0.038948823
144	0x3df9349f	0.1216824
145	0xbd91d0e8	-0.07119924
146	0xbb854a93	-0.004067728
147	0xbe255c8c	-0.16148585
148	0x3d27cdd4	0.040967777
149	0x3e1e2c28	0.15446532
150	0xbdb4d2b5	-0.08829252
151	0x3dae3f5b	0.08508178
152	0x3da92d18	0.08260554
153	0x3ca44161	0.020050706
154	0xbdafdc61	-0.08586956
155	0xbd78e818	-0.060768217
156	0x3c3fd365	0.011708115
157	0x3e480148	0.19531739
158	0x3cb0d4dc	0.021585874
159	0xbd90ffcd	-0.0708004
160	0x3ddab755	0.10679499
161	0x3d9f28b1	0.07771433
162	0x3c23358a	0.009961495
163	0x3de9372f	0.113874786
164	0xbd804288	-0.0626269
165	0xba4bc11d	-0.00077726116
166	0xbe670184	-0.22559172
167	0x3cfe779c	0.031062894
168	0x3e2bc868	0.16775668
169	0x3dce1489	0.100625105
170	0x3d4b8ce3	0.049694907
171	0xbdd70579	-0.10499091
172	0x3c202f6f	0.009776934
173	0xbdeb1d10	-0.114801526
174	0xbe01e73d	-0.12685867
175	0xbcd583b2	-0.026063774
176	0xbc681b45	-0.014166658
177	0x3e0d60b3	0.13806419
178	0xbd88a667	-0.06672364
179	0xbd2ee9c1	-0.042703394
180	0xbd4f01d9	-0.05053887
181	0xbd80769a	-0.062726215
182	0x3e57c18b	0.21069925
183	0xbdfd8ba4	-0.1238015
184	0x3db3a397	0.08771437
185	0xbcffe7f2	-0.03123853
186	0xbe681184	-0.22662932
187	0xbc5bebe4	-0.01342294
188	0x3e1691e3	0.14704089
189	0xbd83e7fa	-0.064407304
190	0xbb07ec92	-0.0020740372
191	0x3bfa9350	0.0076469555
192	0x3bca680f	0.0061769555
193	0x3e251958	0.16122949
194	0x3dcbb4aa	0.09946568
195	0xbde4d814	-0.11174026
196	0xbdeec16c	-0.11657986
197	0xbd465f0d	-0.04843049
198	0xbe399f45	-0.18127163
199	0x3e118511	0.14210917
200	0x3e1d685c	0.15371841
201	0xbd5408eb	-0.051766317
202	0x3d447601	0.0479641
203	0xbdbaadac	-0.091151565
204	0xbdce8edf	-0.10085844
205	0x3dc1bb3c	0.0945954
206	0x3d4b8892	0.04969079
207	0x3e0ef963	0.13962321
208	0x3d7cd131	0.061722938
209	0xbebad140	-0.3648777
210	0xbdb1d9dc	-0.086841315
211	0x3dc1160e	0.09428035
212	0x3ca6270e	0.020282295
213	0xbe32696e	-0.1742303
214	0xbd010673	-0.03150029
215	0x3ccd6803	0.02507401
216	0xbcc51f8c	-0.024062894
217	0x3d8c3949	0.06846864
218	0x3da0be02	0.07848741
219	0x3d35ff07	0.044432666
220	0xbddbe127	-0.10736304
221	0xbde2682c	-0.110550255
222	0x3e0b79e5	0.13620718
223	0xbd27ab3e	-0.040934794
224	0x3dedaaad	0.116048194
225	0xbda1e6fd	-0.07905386
226	0x3d1cb32b	0.038256805
227	0x3c4c74ab	0.012478988
228	0xbe32db79	-0.17466535
229	0x3d33025e	0.04370343
230	0xbe32891a	-0.17435113
231	0xbd84aa21	-0.06477762
232	0xbda6f143	-0.08151486
233	0x3d804d37	0.062647276
234	0xbe02c3ab	-0.12769954
235	0x3c22e488	0.009942181
236	0xbdc4bbda	-0.09606142
237	0x3d2b806c	0.04187052
238	0xbdcb427c	-0.0992479
239	0xbe199173	-0.1499689
240	0xbe127b23	-0.14304785
241	0xbe892919	-0.26789168
242	0xbbe3f108	-0.0069562234
243	0x3ddba4c9	0.1072479
244	0x3ca57e6b	0.020201882
245	0xbcde3b1a	-0.027127791
246	0xbc374f9f	-0.011188417
247	0xbe1b390a	-0.15158477
248	0xbe234640	-0.15944767
249	0xbd734e41	-0.0594008
250	0xbd9c5464	-0.07633284
251	0x3da91b64	0.082571775
252	0xbd03d712	-0.03218753
253	0x3cce4fd9	0.025184559
254	0x3d751fd1	0.059844796
255	0x3ce163c9	0.027513402

blocks.0.fc1.bias f4 [64]
0	0xbdb6c42c	-0.089241356
1	0x3d6b92df	0.057513114
2	0xbcdaec02	-0.026723865
3	0xbdc5760e	-0.09641658
4	0x3d6b3a76	0.0574288
5	0x3d3ca9f8	0.046060532
6	0xbdd3cbf9	-0.10341639
7	0x3dd4c237	0.10388606
8	0xbe0e065d	-0.13869615
9	0x3d5f933c	0.054583773
10	0xbd71e957	-0.05906042
11	0xbe2d6cb5	-0.16936
12	0xbbc1e036	-0.0059166206
13	0xbe1d1e16	-0.15343508
14	0xbd979035	-0.07400552
15	0x3df6671a	0.12031384
16	0xbd8d2a42	-0.06892826
17	0xbdb8c8b6	-0.090226576
18	0xbe033b3d	-0.12815566
19	0xbd5b03f9	-0.053470585
20	0xbc1813cc	-0.009282064
21	0x3d74cbaa	0.05976454
22	0xbddc8081	-0.10766698
23	0xbc86038e	-0.016359117
24	0xbce6ad0c	-0.028158687
25	0xbc00f07b	-0.007869835
26	0xbde431ab	-0.11142286
27	0x3dc375ca	0.09543951
28	0xbdfc64a8	-0.12323886
29	0x3d5fad19	0.05460844
30	0x3e0438af	0.12912248
31	0xbe3c7c12	-0.18406704
32	0x3c5c56fa	0.013448471
33	0xbca9fe07	-0.020751012
34	0xbe167698	-0.14693677
35	0x3d115343	0.035479795
36	0x3df1db50	0.11809409
37	0xbb2e9b4a	-0.0026642852
38	0xbcdf3b92	-0.027250085
39	0x3dad31b9	0.084567495
40	0xbe025f87	-0.12731753
41	0xbe05b5ac	-0.13057584
42	0xbcc0bb0e	-0.023526695
43	0xbdcbc4ab	-0.09949621
44	0x3dea46e8	0.114393055
45	0xbd841ed3	-0.06451192
46	0x3c0e24ac	0.008675735
47	0xbd87f249	-0.06638009
48	0xbdb7b737	-0.08970492
49	0x3d4ed77f	0.05049848
50	0x3db2ff5d	0.08740113
51	0xbe05e14c	-0.13074225
52	0x3dba903e	0.09109543
53	0xbbe51775	-0.0069913217
54	0x3de24fcf	0.110503785
55	0x3c19661a	0.009362722
56	0x3d533b38	0.051570147
57	0x3d230942	0.03980375
58	0xbce49d59	-0.02790706
59	0x3c874d33	0.016516304
60	0x3cc6189d	0.024181658
61	0xbbb4b0e1	-0.0055142497
62	0x3d6328e2	0.05545891
63	0x3d3b1252	0.04567177

blocks.0.fc2.weight f4 [64, 64]
0	0x3d67639e	0.056491487
1	0xbe7eee27	-0.24895535
2	0x3b9f3f12	0.0048598135
3	0xbd836d39	-0.06417317
4	0x3c8a2537	0.016863449
5	0xbd8d6a63	-0.06905057
6	0x3cc95f9e	0.024581727
7	0x3e234ef0	0.15948081
8	0x3cea8d14	0.028631724
9	0x3caefeba	0.021361697
10	0x3d573f7f	0.05255079
11	0x3d1ea8c2	0.03873516
12	0xbd4d2647	-0.050085332
13	0x3e5a925a	0.21344891
14	0xbe5c1770	-0.21493316
15	0xbe316aed	-0.17325945
16	0xbe85666b	-0.260547
17	0xbc1d6c8c	-0.009608399
18	0xbe0d84bf	-0.1382017
19	0x3d30d70b	0.04317383
20	0xbd21dc17	-0.039516535
21	0x3e7566e8	0.23965037
22	0x3b625632	0.003453624
23	0x3ddf78de	0.109117255
24	0xbd8b2a57	-0.06795185
25	0x3d265b71	0.04061455
26	0x3c8b5f89	0.017013328
27	0xbdd14229	-0.10217697
28	0xbd78009f	-0.060547467
29	0xbd9698ab	-0.07353338
30	0xbde4ffd9	-0.111816116
31	0xbcfb6027	-0.030685497
32	0xbb323846	-0.0027194186
33	0xbd70f77c	-0.05882977
34	0x3d6ab239	0.057298873
35	0xbe223816	-0.15841708
36	0xbe0d2cc8	-0.13786614
37	0x3d3928ec	0.04520504
38	0x3d6614c1	0.056172136
39	0xbd7cfb4c	-0.061763093
40	0xbe11c61a	-0.14235726
41	0xbd7ca92d	-0.061684776
42	0xbd21bc43	-0.03948618
43	0x3d83e9c0	0.06441069
44	0xbc8c8fdb	-0.01715844
45	0xbdbca60d	-0.09211359
46	0x3df4244e	0.11920987
47	0x3e1240e6	0.1428257
48	0xbcd4181f	-0.025890408
49	0x3dedbf2d	0.116087295
50	0xbda24e26	-0.07925062
51	0xbd115ee3	-0.03549088
52	0xbe461b37	-0.19346319
53	0x3e592236	0.21204457
54	0xbe68e388	-0.22743046
55	0xbc4122a4	-0.011788044
56	0x3dba2781	0.09089566
57	0x3d63456d	0.05548613
58	0xbd1ed76c	-0.03877966
59	0xbddab4c1	-0.10679007
60	0x3b9acf17	0.004724394
61	0xbde7661b	-0.11298772
62	0x3e23a127	0.15979443
63	0x3ddd4589	0.108042784
64	0xbd0acd97	-0.033887472
65	0x3d3b5880	0.045738697
66	0x3d47a997	0.048745718
67	0x3d444813	0.047920298
68	0x3e8a71b5	0.27039877
69	0xbc6c49fe	-0.014421938
70	0x3e2b5e2c	0.16735142
71	0xbd099bff	-0.033596035
72	0xbcc87d86	-0.024473917
73	0x3dee173c	0.11625525
74	0x3bd7cd81	0.0065857773
75	0xbe28ff08	-0.16503537
76	0x3cb07038	0.021537885
77	0xbdd7b20c	-0.105320066
78	0x3d1bc21e	0.03802692
79	0xbd3ff606	-0.046865486
80	0x3c8b23a4	0.016984768
81	0x3d37575f	0.044761058
82	0xbd26d5de	-0.040731303
83	0x3d014560	0.0315603
84	0x3e3ee51a	0.18642083
85	0xbe122a2b	-0.14273898
86	0xbe6753b1	-0.2259052
87	0x3b2cad87	0.0026348548
88	0xbcf1a792	-0.029498849
89	0xbbc59ad0	-0.006030418
90	0xbdc27663	-0.09495237
91	0xbc8bbce2	-0.01705784
92	0x3d831f52	0.06402458
93	0xbdfbd5e1	-0.122966535
94	0x3da33ebb	0.07970949
95	0x3dd47302	0.103734985
96	0xbe907952	-0.2821756
97	0xbda7dfb8	-0.08196968
98	0xbdab1d46	-0.08355193
99	0xbd7130e2	-0.05888451
100	0xbd28ceb9	-0.04121277
101	0xbdb6e26b	-0.089299046
102	0x3dad7173	0.08468904
103	0xbd1e3b4f	-0.03863078
104	0x3c57abd5	0.013163527
105	0x3d949bde	0.07256292
106	0xbd67474f	-0.05646449
107	0xbd2f392e	-0.04277914
108	0x3d95ae42	0.07308628
109	0x3cc23416	0.023706477
110	0xbd828577	-0.06373113
111	0x3d3818fc	0.044945702
112	0x3d62473a	0.05524371
113	0xbe90516e	-0.28187126
114	0xbc5b1f95	-0.013374229
115	0xbd696cb7	-0.056988444
116	0xbdbce346	-0.092230365
117	0xbd38a03b	-0.045074683
118	0x3dcfbd05	0.101434745
119	0xbad96599	-0.0016586065
120	0xbde9d543	-0.114176296
121	0xbd820bde	-0.0634992
122	0x3e4c0969	0.19925465
123	0x3e074915	0.13211472
124	0x3d9535ce	0.07285653
125	0x3caabfe5	0.020843456
126	0xbaeb1a5d	-0.0017936934
127	0x3d56c642	0.052435167
128	0x3c083aa4	0.008314762
129	0x3d2ab4bb	0.041676264
130	0x3d6e7343	0.05821539
131	0xbdceb354	-0.10092798
132	0x3de44f55	0.11147944
133	0x3d356455	0.044285137
134	0xbd74ccbd	-0.059765566
135	0xbd8d1015	-0.06887833
136	0x3d5ec171	0.0543837
137	0xbe4e0ff4	-0.20123273
138	0xbcd321eb	-0.02577301
139	0xbe11becf	-0.14232944
140	0x3d735c56	0.05941423
141	0xbdef7ae3	-0.11693361
142	0xbcb90cd6	-0.022589128
143	0x3d783e6f	0.060606416
144	0x3d3075a9	0.04308096
145	0x3cd66696	0.026171964
146	0xbe68b6ca	-0.22725978
147	0x3d08ea4a	0.03342656
148	0xbd4d064e	-0.05005484
149	0xbe9baa6b	-0.30403456
150	0xbe5974bf	-0.21235941
151	0x3d6706a2	0.05640281
152	0xbc957db7	-0.018248422
153	0x3d93b54f	0.07212316
154	0xbcf7f43c	-0.030267827
155	0x3dc6b22c	0.09701952
156	0xbc9183aa	-0.017762978
157	0x3d649093	0.05580194
158	0x3e586eb4	0.2113598
159	0xbda6f78d	-0.08152685
160	0xbe0331a5	-0.12811907
161	0xbd0ed03a	-0.03486655
162	0x3e13c791	0.14431597
163	0xbe3f644d	-0.18690605
164	0x3c8095d2	0.01569644
165	0xbda9c623	-0.08289745
166	0x3d7aadeb	0.061201017
167	0xbdac0f2f	-0.084013335
168	0xbdf109af	-0.11769425
169	0xbe361dc4	-0.17784792
170	0xbdaaacfc	-0.083337754
171	0xbd8eea46	-0.06978278
172	0x3de30e38	0.110866964
173	0xbdb27633	-0.08713951
174	0x3cac1fec	0.021011315
175	0x3ced564f	0.02897182
176	0xbc4afbfd	-0.01238918
177	0xbe4a1071	-0.19732834
178	0x3da281cf	0.07934915
179	0xbe61f8df	-0.22067593
180	0xbcdf7830	-0.02727899
181	0xbd3381fb	-0.04382513
182	0xbd97f3af	-0.07419526
183	0xbe07f4e1	-0.13277008
184	0xbe5a6b59	-0.21330012
185	0xbc1f1f32	-0.009712027
186	0x3d2f92f8	0.04286477
187	0xbd8666f2	-0.06562604
188	0x3dad3beb	0.08458694
189	0x3b4fd028	0.0031709764
190	0x3da8b28b	0.08237179
191	0xbceadfed	-0.02867123
192	0x3c7719be	0.015081821
193	0xbc66ba03	-0.014082435
194	0x3d7943bf	0.060855623
195	0xbe5649c5	-0.20926578
196	0xbd4f4b09	-0.05060867
197	0x3ad0c1c2	0.0015926885
198	0xbe2b521c	-0.16730541
199	0xbb9cb06a	-0.0047817724
200	0xbdc67ed0	-0.09692156
201	0xbdda7cff	-0.10668372
202	0x3d8a70e0	0.067598104
203	0x3be7f5ec	0.0070788767
204	0x3c00de67	0.007865525
205	0x3e0c1718	0.13680685
206	0x3e24487b	0.16043274
207	0xbe1dd747	-0.15414153
208	0xbd8b2ffa	-0.0679626
209	0x3e07587f	0.13217352
210	0x3d644bd3	0.055736374
211	0x3d9ce282	0.076603904
212	0xbda04822	-0.07826258
213	0x3d58f3da	0.05296693
214	0x3d4b4564	0.049626723
215	0xbc8d0352	-0.017213497
216	0xbd3e32aa	-0.046435036
217	0x3bb15148	0.005411301
218	0x3e31fd61	0.17381813
219	0x3e17516f	0.14777158
220	0x3d967de0	0.073482275
221	0x3e08f26f	0.13373731
222	0xbdd7ec23	-0.105430864
223	0xbde9c942	-0.1141534
224	0x3e5b90bd	0.21441932
225	0xbe29c0ef	-0.16577505
226	0xbda88eb6	-0.08230345
227	0xbd86f0e6	-0.065889165
228	0x3dfa0b16	0.12209146
229	0xbe65d7ea	-0.22445646
230	0xbbbe710b	-0.0058118156
231	0x3dc98460	0.09839702
232	0xbe2e8874	-0.1704424
233	0x3d3f5f34	0.046721652
234	0xbcc49991	-0.023999007
235	0x3e2b529f	0.16730736
236	0x3bc49fc7	0.0060004923
237	0xbd07f779	-0.033194993
238	0x3c9f5033	0.019447422
239	0x3e18ac67	0.14909516
240	0xbdb60470	-0.08887565
241	0xbe095f1c	-0.13415188
242	0x3da58057	0.080811195
243	0xbe53b705	-0.20675285
244	0xbdc41559	-0.09574384
245	0x3c71e015	0.014762898
246	0x3cff65c4	0.031176455
247	0xbe0841f8	-0.13306415
248	0xbe67a522	-0.22621587
249	0xbde4f2a6	-0.11179094
250	0xbdb0ca51	-0.08632339
251	0xbe05fa51	-0.1308377
252	0xbd9cf11f	-0.07663178
253	0xbdf14809	-0.11781318
254	0xbdd0036e	-0.10156904
255	0xbe1d005c	-0.15332168

blocks.0.fc2.bias f4 [64]
0	0x3d79f97e	0.06102895
1	0x3db3b6e6	0.087751195
2	0x3dbc092e	0.091814384
3	0x3b14814c	0.0022660075
4	0x3ce88335	0.028382877
5	0xbd110854	-0.035408333
6	0x3c945338	0.018106088
7	0xbdddac5a	-0.10823889
8	0xbab1877d	-0.0013544407
9	0xbd773989	-0.060357604
10	0x3df08c11	0.117454655
11	0x3c43a026	0.011940038
12	0x3d61aa5f	0.05509412
13	0x3d13809e	0.03601133
14	0x3d5fd01b	0.054641824
15	0x3d66e232	0.05636806
16	0x3c4226ab	0.0118500395
17	0x3dbd9968	0.092577755
18	0x3deb453e	0.11487816
19	0x3d8fa816	0.07014482
20	0x3e04641b	0.12928812
21	0x3c9ba7ae	0.019000854
22	0xbd8fd1c8	-0.070224345
23	0xbc9bd5ec	-0.019022904
24	0xbdc277e8	-0.094955266
25	0xbe07f216	-0.13275942
26	0x3d44ac2b	0.048015755
27	0x3d02b90b	0.031914752
28	0xbcc2dfe1	-0.023788394
29	0xbe0e08d3	-0.13870554
30	0x3c5f2ea1	0.013621957
31	0xbe0a8a97	-0.1352943
32	0x3d212fce	0.03935223
33	0xbc0bad28	-0.00852517
34	0xbd8f2746	-0.06989913
35	0x3c9acfbf	0.01889789
36	0xbc6a188e	-0.014288081
37	0xbd356040	-0.044281244
38	0x3d891d1c	0.06695005
39	0xbd152904	-0.03641607
40	0x3bdce705	0.006741407
41	0x3d00c09b	0.031433683
42	0x3d896618	0.06708926
43	0x3cc4c844	0.024021275
44	0x3d6e21de	0.058137767
45	0xbd5c8df4	-0.053846315
46	0xbd902e92	-0.070401326
47	0xbb3cd5c1	-0.002881393
48	0xbcecef37	-0.02892266
49	0xbd399b71	-0.045314256
50	0xbde83b97	-0.11339491
51	0xbc4dcaa8	-0.012560524
52	0xbbf2d9cd	-0.007411218
53	0x3a9d4ad2	0.0012000448
54	0x3b42901d	0.002968795
55	0xbcb043d5	-0.02151672
56	0xbdd00143	-0.10156491
57	0xbdb9bce0	-0.09069228
58	0xbe07a10e	-0.13245031
59	0xbd48aecb	-0.04899482
60	0xbdd99b9f	-0.106253855
61	0x3c9be726	0.019031119
62	0xbe2614aa	-0.1621882
63	0x3dbdecc6	0.092736766

blocks.1.fc1.weight f4 [64, 64]
0	0xbded7920	-0.115953684
1	0x3c4d4194	0.012527842
2	0x3d1ee4a2	0.03879226
3	0x3ceeba04	0.029141434
4	0x3cba001f	0.022705136
5	0x3c495e96	0.012290617
6	0xbd2a79ec	-0.04162018
7	0xbc12c5a3	-0.008958253
8	0xbc88f2f5	-0.016717413
9	0x3d656907	0.056008365
10	0x3d9ff6f1	0.07810772
11	0x3c54421f	0.012955218
12	0xbdcc4166	-0.09973411
13	0x3dcfa8ea	0.1013964
14	0x3dc8af93	0.09799113
15	0x3da275e0	0.07932639
16	0xbbabbb00	-0.005240798
17	0xbe703631	-0.23458172
18	0xbd52e8c1	-0.051491503
19	0xbda9a37c	-0.08283135
20	0xbd78afd1	-0.060714547
21	0x3ce6ccbf	0.028173802
22	0xbe1e2320	-0.15443087
23	0xbdcf802b	-0.10131868
24	0xbde81d0b	-0.113336645
25	0xbdd16d1d	-0.1022589
26	0x3cef4c11	0.029211076
27	0x3da9328b	0.082615934
28	0x3be43532	0.006964349
29	0xbdc46c24	-0.09590939
30	0x3c92b940	0.0179106
31	0xbe1b9011	-0.15191676
32	0x3ddece65	0.108792104
33	0x3db280de	0.08715986
34	0x3deca595	0.1155502
35	0x3db39c8b	0.087700926
36	0xbe54367f	-0.20723914
37	0xbe0125a3	-0.12612014
38	0x3e0a2923	0.13492255
39	0x3c332d9d	0.010936168
40	0xbdbee664	-0.09321287
41	0xbe296374	-0.16541845
42	0x3e07472f	0.13210748
43	0x3bb8db39	0.0056413678
44	0xbe834725	-0.25640216
45	0xbd50f51f	-0.051015016
46	0x3c38fe29	0.011291065
47	0x3e014a87	0.12626086
48	0x3b2ebceb	0.0026662897
49	0xbdef4b9e	-0.11684345
50	0x3e48e958	0.19620264
51	0x3c4077fd	0.011747357
52	0xbd9232cd	-0.07138596
53	0xbdfdb653	-0.12388291
54	0x3dd1fb2e	0.10252987
55	0xbdd1eda2	-0.10250403
56	0xbdf9b110	-0.12191975
57	0x3d594298	0.053042024
58	0x3caf1728	0.021373346
59	0x3d9c4416	0.07630174
60	0xbdc270e4	-0.094941884
61	0xbc01acf6	-0.007914772
62	0xbdf4f8e9	-0.11961538
63	0xbccb7633	-0.024836635
64	0x3cf7629e	0.030198392
65	0xbda7aa70	-0.08186805
66	0x3d87d995	0.06633297
67	0x3d5d51a5	0.05403294
68	0xbe0e7cfa	-0.13914862
69	0xbb9b46b2	-0.004738652
70	0x3c3628f8	0.011118166
71	0xbe2c2393	-0.16810445
72	0xbe2104b2	-0.15724447
73	0xbd8748b3	-0.06605663
74	0x3dd4fd33	0.103998564
75	0xbdcd2a7d	-0.100178696
76	0x3dd2f25c	0.10300133
77	0x3d89fa70	0.0673722
78	0xbe45d776	-0.19320473
79	0x3dbb8a58	0.09157246
80	0xbd9fbe94	-0.07800022
81	0xbdb629dc	-0.08894703
82	0xbde5e346	-0.112249896
83	0x3d195b40	0.03744054
84	0xbbbbfa72	-0.0057366425
85	0x3d0eb9ef	0.03484529
86	0xbe0e1964	-0.13876873
87	0xbe75a5c5	-0.23989017
88	0x3ca2ddd1	0.01988116
89	0xbdbd01dc	-0.0922887
90	0x3d8860f5	0.06659118
91	0x3d059233	0.03261013
92	0xbe3a47d2	-0.1819146
93	0xbd0ae4e1	-0.033909682
94	0x3dbf1557	0.09330242
95	0xbd37cdb7	-0.04487392
96	0x3b86cbb7	0.00411364
97	0x3ce6e707	0.028186334
98	0xbe42fd47	-0.1904193
99	0xbd7b56a7	-0.061361935
100	0xbd118f84	-0.035537258
101	0xbbc1c2b8	-0.005913105
102	0x3d4e1098	0.050308794
103	0x3d313ece	0.043272786
104	0x3e895bc4	0.26827824
105	0xbc678752	-0.014131384
106	0x3d841c0b	0.06450661
107	0xbce00c4b	-0.027349612
108	0xbd8084f5	-0.062753595
109	0x3d7261a0	0.059175134
110	0xbde37ef2	-0.11108197
111	0xbd3f3345	-0.046679754
112	0x3da05995	0.078295864
113	0xbe8632b6	-0.26210564
114	0x3db9cf6e	0.09072767
115	0xbe690116	-0.2275432
116	0xbd9290d5	-0.07156531
117	0x3c64eef8	0.01397299
118	0x3dc796f5	0.0974559
119	0x3e06f3aa	0.13178888
120	0x3ddfceab	0.10928091
121	0xbb9a02bc	-0.004700033
122	0xbd4db2ce	-0.05021935
123	0xbdae82a3	-0.08521011
124	0x3e0a1c98	0.1348747
125	0xbe15e83a	-0.14639369
126	0x3dcd4060	0.10022044
127	0xbd5464c9	-0.05185393
128	0xbe2b3122	-0.16717961
129	0x3d789096	0.060684763
130	0x3db57bce	0.088615045
131	0xbcd7a86e	-0.02632543
132	0x3c52a6bd	0.012857136
133	0xbd1e61ac	-0.038667366
134	0x3cccda9c	0.025006585
135	0xbdce3be1	-0.10070015
136	0x3dd1840f	0.10230266
137	0xbaf5dee7	-0.0018758447
138	0x3d8a3f48	0.06750351
139	0xbda36657	-0.07978504
140	0x3d195b90	0.037440836
141	0x3dbadb9b	0.09123918
142	0x3d519699	0.05116901
143	0xbdb01887	-0.08598428
144	0xbd837cc6	-0.06420283
145	0xbda4203b	-0.0801396
146	0x3d619e54	0.055082634
147	0x3d6787ed	0.056526113
148	0x3d417b9b	0.04723702
149	0x3cee6963	0.029102987
150	0xbb36dc4f	-0.002790231
151	0x3dbff3da	0.09372683
152	0xbe23e5d1	-0.16005637
153	0x3dab9353	0.08377709
154	0x3e179cb8	0.14805877
155	0x3cf24496	0.02957372
156	0xbde61470	-0.11234367
157	0xbe081af0	-0.13291526
158	0xbe00a281	-0.1256199
159	0xbe0bd4d9	-0.13655414
160	0xbdb45723	-0.088056825
161	0x3c66f778	0.014097087
162	0x3da3aab1	0.07991541
163	0x3dd0c681	0.101941116
164	0x3d879d63	0.06621816
165	0xbe16b662	-0.14718011
166	0xbd4d3a2e	-0.050104313
167	0xbc3340c0	-0.010940731
168	0xbcd4e009	-0.025985735
169	0x3dba576d	0.090987064
170	0xbda4c07e	-0.080445275
171	0xbbb76fba	-0.0055980356
172	0x3d48f356	0.04906019
173	0xbd840362	-0.06445958
174	0xbc668a94	-0.014071126
175	0x3c6d2f20	0.0144765675
176	0x3dc9b5a4	0.09849098
177	0xbe649953	-0.22324114
178	0xbe58b969	-0.21164478
179	0xbe566ddd	-0.20940347
180	0x3bc31676	0.0059536053
181	0x3dd67ea3	0.10473373
182	0xbe154096	-0.14575419
183	0xbd835291	-0.06412233
184	0x3d0c12ab	0.03419749
185	0xbd5e3523	-0.054249894
186	0xbe00330a	-0.1251947
187	0xbdaa48fc	-0.08314702
188	0x3d8bac28	0.068199456
189	0x3c35391e	0.011060981
190	0xbe045009	-0.12921156
191	0x3e3472c9	0.17621912
192	0x3c111c57	0.008856854
193	0xbdb72ced	-0.08944116
194	0xbc9c2c05	-0.019063959
195	0xbd903f30	-0.07043302
196	0x3c79830b	0.015228997
197	0xbdc1cf65	-0.094633855
198	0x3cb4e7f6	0.022083264
199	0xbd8e0b84	-0.0693579
200	0xbdcea850	-0.10090697
201	0xbdb0ab4c	-0.08626422
202	0xbd32cf85	-0.043654937
203	0xbdd64abe	-0.10463475
204	0x3d8685aa	0.06568463
205	0xbceb8e21	-0.028754296
206	0x3d42474c	0.047431275
207	0xbdd9caa2	-0.10634352
208	0xbca8e402	-0.020616535
209	0xbcad22d7	-0.021134777
210	0xbd4eaa05	-0.050455112
211	0x3decbfe0	0.11560035
212	0xbdb8d16d	-0.0902432
213	0xbcd2e75d	-0.025745088
214	0xbdb9242b	-0.090401016
215	0x3cfb3eaa	0.030669529
216	0xbe0efab6	-0.13962826
217	0x3ccec162	0.025238696
218	0xbdfda427	-0.12384825
219	0x3d08fd7c	0.033444867
220	0x3d828f71	0.063750155
221	0x3c77b69d	0.015119222
222	0xbcd6cfbf	-0.026222108
223	0xbe087765	-0.13326795
224	0xbd8a50b9	-0.06753678
225	0xbe0c6a4e	-0.13712427
226	0xbd9d08cb	-0.07667693
227	0x3b6ee4ea	0.0036452361
228	0x3db2c4d4	0.08728948
229	0xbd856ef1	-0.06515301
230	0xbd1ed00c	-0.038772628
231	0xbd452510	-0.04813105
232	0x3c733c2e	0.014845891
233	0xbd91b43f	-0.07114457
234	0xbe0c5db9	-0.13707627
235	0xbdcd431b	-0.10022565
236	0xbd897ab6	-0.067128584
237	0xbde674bb	-0.11252733
238	0xbd548097	-0.051880445
239	0xbde8f6a8	-0.11375171
240	0x3dbb4617	0.09144228
241	0x3b5616d8	0.0032667425
242	0xbb9a31c2	-0.0047056386
243	0xbe1b3fc4	-0.15161043
244	0x3d0f3050	0.034958184
245	0xbdd16c6b	-0.10225757
246	0xbccc3491	-0.02492741
247	0x3d148868	0.0362629
248	0xbe0ab9f3	-0.13547496
249	0xbc6808b6	-0.014162233
250	0xbe020e72	-0.12700823
251	0x3cf4502a	0.029823381
252	0x3d2d1e5f	0.042265292
253	0x3cb54cac	0.022131287
254	0xbe036a19	-0.12833442
255	0xbd15f19c	-0.03660737

blocks.1.fc1.bias f4 [64]
0	0x3de3f522	0.1113074
1	0xbd2d1055	-0.042251904
2	0x3d49fc69	0.049312983
3	0xbcd90e36	-0.026496034
4	0xbdeae712	-0.114698544
5	0x3d806b61	0.06270481
6	0xbb3c4cee	-0.0028732377
7	0xb9711ac3	-0.0002299352
8	0xbe1057b3	-0.14095955
9	0xbe03fa85	-0.12888534
10	0x3b23ca88	0.0024992544
11	0x3cc177a2	0.023616616
12	0xbc63e312	-0.013909118
13	0x3e01bd6e	0.12669918
14	0x3d5fc9f7	0.054635968
15	0xbdcfb88c	-0.101426214
16	0xbd32d05d	-0.043655742
17	0xbd343366	-0.04399433
18	0xbd6e3df4	-0.05816455
19	0xbe02a673	-0.12758808
20	0xbdcb5445	-0.099281825
21	0xbe1d022c	-0.1533286
22	0x3d15bb63	0.03655566
23	0x3d30aba5	0.043132443
24	0xbe0c695a	-0.13712063
25	0x3d10977f	0.035300728
26	0xbe0c809e	-0.13720939
27	0x3dcc5b0d	0.09978304
28	0xbbd9d95f	-0.006648227
29	0x3dcd15c3	0.10013916
30	0x3e1ecd4f	0.15508007
31	0xbd6fb7f8	-0.058525056
32	0xbdf9d9d8	-0.121997535
33	0xbde204b3	-0.110360526
34	0xbd011a66	-0.031519316
35	0x3d190e63	0.037367236
36	0x3ccf476b	0.02530261
37	0xbc3dec90	-0.011592045
38	0xbd5f6416	-0.05453881
39	0x3dd77b35	0.10521547
40	0x3d4593ca	0.048236646
41	0xbbd0c511	-0.0063711484
42	0x3d53c5fe	0.051702492
43	0xbc99c035	-0.01876841
44	0xbe275b25	-0.16343363
45	0xbd543738	-0.051810473
46	0x3e08abe6	0.13346824
47	0xbdd1c97b	-0.102435075
48	0xbcf2ed5e	-0.029654201
49	0x3d99fefb	0.07519337
50	0xbd39ddad	-0.045377422
51	0xbd9fda8c	-0.078053564
52	0x3d4a1252	0.049333878
53	0x3d495d66	0.049161337
54	0xbcb0d76f	-0.021587102
55	0xbce63c4e	-0.028104927
56	0xbde4c653	-0.1117064
57	0x3d4b3bca	0.049617566
58	0x3dbf4632	0.093395606
59	0x3cd8cc98	0.026464745
60	0x3c316d52	0.010829287
61	0x3bbee7a3	0.005825953
62	0x3c5c5296	0.013447424
63	0x3dd11f43	0.10211041

blocks.1.fc2.weight f4 [64, 64]
0	0xbbb2b8b8	-0.005454149
1	0xbb25775b	-0.0025248143
2	0xbd5068d8	-0.050881237
3	0xbdd6f597	-0.10496061
4	0x3d613be8	0.05498877
5	0x3cb05ee7	0.021529628
6	0xbd81dc48	-0.063408434
7	0xbe01b15f	-0.12665318
8	0xbe171767	-0.14755021
9	0x3d9885c1	0.074473865
10	0xbe0ea6ac	-0.13930768
11	0xbd043323	-0.03227533
12	0x3cc30adb	0.023808887
13	0xbd3c7a64	-0.04601516
14	0xbe126f15	-0.14300187
15	0x3d77198d	0.0603271
16	0x3dd0adf7	0.10189431
17	0x3ad2e3b8	0.0016089594
18	0xbd81c92f	-0.06337201
19	0x3e8a17c6	0.26971263
20	0xbe0f9236	-0.14020619
21	0x3e0a4c0a	0.13505569
22	0xbe10f53d	-0.14156051
23	0xbe8c0b7e	-0.27352518
24	0x3a393630	0.00070652645
25	0x3cd23793	0.025661265
26	0xbd94cd8a	-0.07265766
27	0x3d064c9b	0.0327879
28	0xbdce28bd	-0.10066364
29	0xbd3254e6	-0.043537997
30	0x3da20f92	0.07913126
31	0xbd6e675d	-0.058204044
32	0x3e0d283f	0.13784884
33	0x3e767904	0.24069601
34	0x3d715521	0.058919076
35	0xbe36a719	-0.1783718
36	0x3cf2c710	0.029635936
37	0xbb95d31c	-0.0045722853
38	0xbe3a2f6e	-0.18182155
39	0x3d62b5a6	0.055349015
40	0x3d2ee67b	0.042700272
41	0x3d9f13de	0.07767461
42	0x3c8b4c81	0.017004253
43	0x3dc571c4	0.0964084
44	0xbd7e8033	-0.06213398
45	0xbdc02740	-0.09382486
46	0x3e05c356	0.13062796
47	0x3dcd98f2	0.10038938
48	0x3e1397eb	0.14413421
49	0x3d90226d	0.07037816
50	0xbda650aa	-0.08120854
51	0x3e38a644	0.18032175
52	0xbd332541	-0.0437367
53	0xbda7b37a	-0.08188529
54	0x3db8094a	0.08986147
55	0x3bdb83ff	0.006699085
56	0xbbb86d09	-0.0056282324
57	0x3d9c3457	0.076271705
58	0xbe0029e1	-0.12515976
59	0xbdcc974b	-0.09989794
60	0x3cb13fa8	0.021636799
61	0xbdd6a5d7	-0.1048085
62	0x3da29ec7	0.079404406
63	0xbce0552b	-0.027384361
64	0x3d8e3d5c	0.06945297
65	0x3e0267a7	0.12734853
66	0x3d2057ca	0.039146222
67	0x3da99f12	0.082822934
68	0xbd5a75c0	-0.05333495
69	0xbc9dfa4e	-0.019284394
70	0xbde8bce2	-0.113641515
71	0x3dbde0a7	0.09271365
72	0x3e083fd1	0.13305594
73	0x3e3614ed	0.1778142
74	0xbe1f7c12	-0.15574673
75	0xbd9c6e41	-0.07638217
76	0xbdc465d7	-0.09589737
77	0x3d56f2cf	0.052477654
78	0x3e3aa602	0.1822739
79	0x3d2b7234	0.04185696
80	0xbe2103e6	-0.15724143
81	0xbd11da16	-0.035608374
82	0x3ce74719	0.028232144
83	0x3d7b14ec	0.06129925
84	0x3cbd3fd7	0.02310173
85	0x3e210976	0.15726265
86	0x3dd1ee27	0.10250502
87	0x3c9332e9	0.017968612
88	0xbe12e5e9	-0.14345516
89	0xbd5632fb	-0.052294713
90	0x3c1fb723	0.009748253
91	0xbd5ea2b8	-0.0543544
92	0xbc975b68	-0.018476203
93	0x3d7d6c08	0.061870605
94	0x3c62d398	0.013844393
95	0x3c52b8c3	0.012861433
96	0x3df4a1ed	0.119449474
97	0xbd87c927	-0.06630164
98	0xbe3fa1c7	-0.18714057
99	0xbdfa9981	-0.1223631
100	0xbcb17912	-0.021664176
101	0x3cfd55d3	0.030924713
102	0x3e18c358	0.14918268
103	0xbbc09e8e	-0.005878276
104	0xbd3d2c0e	-0.046184592
105	0x3e0b0798	0.13577116
106	0x3ddd51ac	0.10806593
107	0xbd14bf02	-0.03631497
108	0xbe1024fe	-0.14076611
109	0x3c46414f	0.012100532
110	0x3c94eb38	0.018178567
111	0x3dc37935	0.09544603
112	0xbe569cb4	-0.20958215
113	0xbd018007	-0.031616237
114	0x3d7584c6	0.059941076
115	0x3cc0f181	0.023552658
116	0x3da10339	0.07861943
117	0xbd99081d	-0.074722506
118	0xbd3781bb	-0.044801455
119	0xbd75494c	-0.059884354
120	0xbe20a53a	-0.15688029
121	0x3daeefea	0.08541854
122	0xbc8d064d	-0.017214919
123	0x3e2f1d22	0.17100957
124	0x3e3cbfe6	0.18432578
125	0xbced4f2b	-0.028968414
126	0x3d267f25	0.0406486
127	0xbe4d398e	-0.20041487
128	0x3df8a7b6	0.12141363
129	0xbe04f5a5	-0.12984331
130	0x3d4df63e	0.050283663
131	0xbd23ba87	-0.03997281
132	0xbdaca5ba	-0.08430047
133	0x3d271d44	0.040799394
134	0xbd2f0baa	-0.042735733
135	0x3da881d1	0.082278855
136	0xbb95efd2	-0.004575708
137	0x3e0d399f	0.13791512
138	0xbdc3fc72	-0.095696345
139	0xbc6b8584	-0.014375094
140	0xbd05c832	-0.032661624
141	0xbd1c4957	-0.03815588
142	0xbe5e2c1d	-0.21696515
143	0x3d9b95f6	0.07596962
144	0x3c0c5043	0.008564058
145	0xbd9f3e8d	-0.077756025
146	0x3d838058	0.06420964
147	0xbcfb96a7	-0.030711485
148	0xbe0d356c	-0.1378991
149	0x3d9f30fd	0.07773016
150	0xbce63546	-0.028101575
151	0xbda127d4	-0.07868925
152	0x3de975b9	0.11399407
153	0xbba99b1a	-0.0051759603
154	0xbe046488	-0.12928975
155	0xbdb54276	-0.08850567
156	0xbd1afa19	-0.037836168
157	0x3d4f130f	0.050555285
158	0x3df6fc8d	0.12059889
159	0x3c9c879d	0.019107634
160	0xbd833c94	-0.06408039
161	0xbcba2523	-0.022722786
162	0x3a5dd995	0.0008462903
163	0xbdf92125	-0.12164525
164	0x3cacbfc2	0.021087531
165	0x3ca4b93a	0.020107854
166	0x3dc95086	0.09829812
167	0xbd9a8374	-0.07544604
168	0xbd1a1541	-0.037617926
169	0xbd9aa704	-0.07551387
170	0x3de89884	0.11357215
171	0xbdeafd32	-0.114740744
172	0x3ccc65f3	0.024950957
173	0xbe0f9278	-0.14020717
174	0x3b2ea162	0.0026646485
175	0x3d33986e	0.04384654
176	0xbe10290d	-0.1407816
177	0xbe5a4246	-0.21314344
178	0x3dd1f96a	0.1025265
179	0xbdb0f7eb	-0.086410366
180	0x3da2fd4c	0.07958469
181	0xbe08d0ab	-0.1336085
182	0x3db5ea2c	0.08882555
183	0xbe344068	-0.17602694
184	0xbd23cbc2	-0.03998924
185	0x3e4a62a4	0.19764191
186	0x3dd98cd1	0.10622562
187	0x3d2c8b6d	0.042125154
188	0x3d4f54f7	0.05061814
189	0xbc8b54cc	-0.017008208
190	0xbc1f41de	-0.009720294
191	0x3cdeb88c	0.027187608
192	0xbd300280	-0.042971134
193	0xbcb80efd	-0.022468084
194	0x3df62160	0.120180845
195	0x3dd2b43d	0.10288284
196	0x3daaf843	0.083481334
197	0x3d97846c	0.07398304
198	0xbd5c01dd	-0.053712714
199	0x3d5731ae	0.052537613
200	0xbd57b566	-0.05266323
201	0xbd89c5f7	-0.06727212
202	0x3c9234c5	0.017847428
203	0x3d66b51f	0.056325074
204	0x3dc59eb9	0.096494146
205	0xbcb4c35f	-0.022065816
206	0xbe4c798d	-0.19968243
207	0x3dd6d100	0.10489082
208	0x3c8fc8e5	0.017551849
209	0x3d9de012	0.07708754
210	0x3dd2d755	0.102949776
211	0xbd6dcb95	-0.05805548
212	0xbd868a4d	-0.065693475
213	0xbd164c2d	-0.03669374
214	0xbd875249	-0.066074915
215	0x3e39daf0	0.18149924
216	0x3e38dda8	0.18053305
217	0x3dbf246c	0.09333119
218	0x3db746be	0.0894904
219	0xbe39ba3f	-0.18137453
220	0x3e5e8d54	0.217336
221	0xbc1d4b06	-0.0096004065
222	0x3e26acd7	0.1627687
223	0xbdc3210d	-0.09527788
224	0xbe43d84f	-0.19125484
225	0x3cf9657f	0.030443905
226	0xbe137210	-0.1439898
227	0xbc8918cc	-0.016735457
228	0xbe75fed8	-0.24022996
229	0xbdcc015f	-0.09961199
230	0xbd8d214d	-0.06891117
231	0xb7cd1cb3	-2.4451268e-05
232	0x3e3d6872	0.18496874
233	0xbcbe2f3d	-0.023215884
234	0x3d4671f0	0.048448503
235	0xbbec378a	-0.007208769
236	0xbd2d610a	-0.04232887
237	0x3cc14630	0.023593038
238	0x3e6605dc	0.22463173
239	0xbd1b6def	-0.037946638
240	0xbdf46903	-0.11934092
241	0xbe55a349	-0.2086307
242	0x3d515fac	0.05111663
243	0x3d803d30	0.062616706
244	0x3e01b05e	0.12664935
245	0x3db0974c	0.086226076
246	0x3d805bc9	0.06267507
247	0xbe2db40b	-0.16963212
248	0xbe05975c	-0.1304602
249	0xbd9173fb	-0.071022
250	0xbd8eb70d	-0.06968508
251	0xbe5c16b2	-0.21493033
252	0xbe1f5022	-0.15557912
253	0x3cab4537	0.020907028
254	0x3e38eddf	0.1805949
255	0xbdc90615	-0.09815613

blocks.1.fc2.bias f4 [64]
0	0xbd244163	-0.04010142
1	0x3de96994	0.113970906
2	0x3e0e037b	0.13868515
3	0x3e31cdbc	0.17363638
4	0x3d637ea1	0.055540685
5	0x3b4a6b6b	0.003088678
6	0x3d28d9a6	0.04122319
7	0x3ca2b053	0.019859469
8	0xbda508b2	-0.08058299
9	0x3d448004	0.047973648
10	0x3d24e28e	0.040255122
11	0x3e22bcfb	0.15892403
12	0xbd2d1a5e	-0.042261474
13	0x3d8f6b8c	0.07002935
14	0x3b0b19f6	0.002122519
15	0xbe2e6af0	-0.17032981
16	0x3dc7ff47	0.09765487
17	0x3d8e4a45	0.069477595
18	0x3d643d50	0.055722535
19	0xbc89818c	-0.016785406
20	0x3e01772c	0.12643117
21	0xbde32082	-0.11090185
22	0x3dcbb037	0.0994572
23	0x3d9a9d99	0.075495906
24	0x3d86fe57	0.0659148
25	0x3d60c63a	0.054876544
26	0x3d1c0f88	0.03810075
27	0x3df07b70	0.11742294
28	0x3d30452b	0.043034714
29	0xbd4d4dc1	-0.05012298
30	0xbbd4bdc3	-0.006492348
31	0x3d289264	0.041155234
32	0x3d99c0b5	0.07507459
33	0x3da00da6	0.07815103
34	0xbd0b29ad	-0.033975292
35	0x3d9e2573	0.077219866
36	0xbd45fbc6	-0.048335813
37	0x3dbcd66b	0.092205845
38	0x3d869988	0.065722525
39	0xbcd49a2e	-0.025952425
40	0xbd03dbff	-0.032192226
41	0x3ded6da3	0.11593177
42	0xbde106c4	-0.109876186
43	0xbd763743	-0.060111295
44	0xbded6a63	-0.11592557
45	0x3d919aaf	0.07109582
46	0xbc17c8f6	-0.009264221
47	0x3d639937	0.05556604
48	0x3e0b5de5	0.13610037
49	0xbe13873f	-0.14407061
50	0xbd4685aa	-0.048467316
51	0x3ae088a7	0.0017130569
52	0xbd01ab6e	-0.03165763
53	0x3c52819f	0.012848287
54	0xbdd0fd16	-0.10204522
55	0x3d9e0f0e	0.07717715
56	0x3d87fbb5	0.06639806
57	0x3cc810f5	0.024422148
58	0x3cb3bf01	0.021941664
59	0xbda09f53	-0.07842889
60	0xbe06aa9f	-0.13151024
61	0x3d631cec	0.055447504
62	0x3d924398	0.07141799
63	0x3da65a33	0.08122673

fc2.weight f4 [10, 64]
0	0x3dcb3bcf	0.09923517
1	0xbd90b483	-0.0706568
2	0xbe467fff	-0.19384764
3	0xbe02167b	-0.12703888
4	0xbe23864b	-0.15969197
5	0x3e2de03b	0.16980068
6	0x3e57549c	0.2102837
7	0x3e10b550	0.14131665
8	0x3cb2d9fe	0.021832462
9	0x3e0cbdb5	0.13744242
10	0xbdfb0e64	-0.12258604
11	0xbb74559e	-0.0037282477
12	0xbda74615	-0.08167664
13	0x3e012cc6	0.12614736
14	0x3df3f6e2	0.119123235
15	0xbecf61c1	-0.40504268
16	0xbdd49e5b	-0.103817664
17	0x3e0b7416	0.13618502
18	0x3dff31ba	0.124606565
19	0x3df8aff5	0.12142936
20	0xbeb1e03e	-0.34741396
21	0xbe942516	-0.28934544
22	0x3e20aa2f	0.1568992
23	0x3e2d4296	0.16919932
24	0xbdbd32fe	-0.092382416
25	0x3dc76980	0.097369194
26	0xbd8d13a9	-0.068885155
27	0xbe81f237	-0.25380108
28	0xbeac099f	-0.3360109
29	0xbd21cb36	-0.039500438
30	0x3c8b18ca	0.016979594
31	0xbe2dc457	-0.16969429
32	0x3e458562	0.19289163
33	0x3d112d7f	0.03544378
34	0xbd0c179b	-0.0342022
35	0xbddc5d7a	-0.10760017
36	0x3d2d8f5c	0.042373046
37	0xbd892fd2	-0.06698574
38	0x3db87c99	0.0900814
39	0x3e5544f9	0.20827092
40	0xbc67107e	-0.014103053
41	0xbeedb327	-0.46425745
42	0xbda72996	-0.08162229
43	0xbb8e6abd	-0.0043462203
44	0xbe02dc0d	-0.12779255
45	0xbe6bebb7	-0.23039137
46	0x3d35cd1b	0.044385057
47	0xbd4f52f3	-0.050616216
48	0xbdeece2e	-0.116604194
49	0xbe22b427	-0.15889035
50	0xbe8db7ad	-0.27679196
51	0x3d111281	0.035418037
52	0xbe2d46c3	-0.16921525
53	0x3dbb39e2	0.091419
54	0xbdb4ef1b	-0.08834668
55	0x3dc01f24	0.093809396
56	0xbc89030e	-0.01672509
57	0xbdc9a070	-0.09845054
58	0xbe88fd32	-0.26755673
59	0xbc448c4f	-0.011996343
60	0xbd978d4f	-0.07399999
61	0xbde10540	-0.109873295
62	0xbe7d694a	-0.24747196
63	0x3dfd8090	0.12378037
64	0x3df372f6	0.118871614
65	0xbdbc5813	-0.09196486
66	0xbe321173	-0.17389469
67	0x3d9ae155	0.0756251
68	0x3e033818	0.12814367
69	0xbcb27e20	-0.021788657
70	0xbe52031c	-0.20508999
71	0xbe400f2d	-0.18755789
72	0xbe04ab67	-0.1295601
73	0xbe11e59b	-0.14247744
74	0x3d2f5137	0.042802062
75	0xbe1dbabb	-0.15403263
76	0x3e1f26dc	0.15542167
77	0x3d60a49b	0.05484448
78	0x3c8de19b	0.017319491
79	0x3e084fc0	0.13311672
80	0x3d8526cb	0.0650154
81	0xbe5ad900	-0.21371841
82	0xbe8f7e01	-0.2802582
83	0xbe580c00	-0.21098328
84	0xbd753f85	-0.05987503
85	0x3e1486aa	0.14504495
86	0xbdb3097d	-0.08742044
87	0x3d38054c	0.044926926
88	0xbcc64270	-0.024201602
89	0xbd441956	-0.047875725
90	0xbe42f853	-0.1904004
91	0xbe71d6a7	-0.2361704
92	0x3c7b6f21	0.015346319
93	0x3c613d45	0.013747518
94	0x3d94cd32	0.072657004
95	0x3cbee14a	0.023300786
96	0x3da8aafa	0.08235736
97	0x3e0c63af	0.13709901
98	0x3e08fdc8	0.1337806
99	0x3d189d3e	0.037259333
100	0x3d42a081	0.04751635
101	0xbe0592c7	-0.13044272
102	0xbcae7b90	-0.021299154
103	0xbd81bb7e	-0.063345894
104	0x3e6ea711	0.23305918
105	0x3dd63122	0.1045859
106	0xbcf89fbe	-0.030349609
107	0xbe3290fa	-0.17438117
108	0x3db9c7ff	0.09071349
109	0xbe2a9109	-0.16656889
110	0x3de98ff8	0.11404413
111	0xbe3b7b6a	-0.18308797
112	0xbd18a9cf	-0.037271317
113	0x3e3b639a	0.18299714
114	0x3b9a736a	0.0047134655
115	0x3e7873fc	0.24262995
116	0x3e425c55	0.18980534
117	0x3e17ec96	0.14836344
118	0x3d31a457	0.043369617
119	0xbe1b33fe	-0.15156552
120	0xbe0cc636	-0.13747486
121	0x3d5653ca	0.052326
122	0xbe3bb591	-0.18330981
123	0xbca6bd15	-0.020353833
124	0x3e0c45f0	0.13698554
125	0x3d0c2912	0.034218855
126	0xbeb71e2b	-0.35765204
127	0xbeb04e94	-0.3443495
128	0x3da1ed5c	0.07906601
129	0x3df88b4a	0.12135942
130	0xbc4593ba	-0.012059147
131	0xbd4921db	-0.049104553
132	0x3d9def10	0.07711613
133	0x3dc79f78	0.09747213
134	0x3e4ebe9a	0.20189896
135	0x3da9d67d	0.082928635
136	0x3e3ee30a	0.18641296
137	0xbdccfb0f	-0.10008823
138	0xbeb6fd9e	-0.3574037
139	0xbd3ed002	-0.04658509
140	0xbe3a1656	-0.18172583
141	0xbaa303ad	-0.0012437009
142	0x3db1e0b4	0.08685437
143	0xbd3a8296	-0.045534693
144	0xb7d15202	-2.495293e-05
145	0xbe0cd362	-0.13752511
146	0xbde1a00d	-0.110168554
147	0xbc933594	-0.017969884
148	0x3c02ac3a	0.007975632
149	0xbb0955a5	-0.002095559
150	0xbdf7dfd0	-0.12103236
151	0x3cc73514	0.024317302
152	0x3dd26cd5	0.10274664
153	0x3e209c2f	0.1568458
154	0xbe64d5de	-0.22347209
155	0xbd06d854	-0.03292115
156	0x3e2849b2	0.16434363
157	0x3e2f6d88	0.17131627
158	0x3d915969	0.07097132
159	0xbd6ba4b9	-0.05753014
160	0xbe7039e9	-0.23459591
161	0xbdca6b85	-0.09883789
162	0x3e432db2	0.190604
163	0xbd6b4efa	-0.057448365
164	0x3ce8a4fa	0.02839898
165	0x3dd50981	0.10402203
166	0x3b976acb	0.004620885
167	0x3e14129b	0.14460222
168	0x3dd5fe03	0.104488395
169	0xbe03cd97	-0.12871395
170	0x3da87350	0.08225119
171	0x3dd30093	0.10302844
172	0xbbc3752b	-0.0059648952
173	0xbe46ce29	-0.19414581
174	0xbe19fc4b	-0.15037648
175	0x3e074903	0.13211446
176	0xbdc79656	-0.09745471
177	0x3deded6c	0.1161755
178	0xbde46afa	-0.11153217
179	0xbe02b9b1	-0.12766148
180	0x3e320494	0.17384559
181	0xbdc54664	-0.096325666
182	0xbde852a3	-0.11343887
183	0xbe024285	-0.12720688
184	0x3d2c06d0	0.041998684
185	0xbe3a8089	-0.18213095
186	0x3e67aedc	0.22625297
187	0x3dac5f4f	0.08416616
188	0xbe38daae	-0.1805217
189	0xbe81f5d8	-0.25382876
190	0xbdf01fd3	-0.1172482
191	0xbe533da3	-0.20628981
192	0x3d9073d0	0.070533395
193	0x3d787137	0.060654845
194	0xbe9060d0	-0.28198862
195	0xbdcfe7d3	-0.10151639
196	0xbc098696	-0.008393904
197	0x3c1d01c2	0.009582939
198	0xbe0222c7	-0.12708579
199	0xbe5c2fce	-0.21502611
200	0x3e0c0557	0.13673912
201	0xbe3baaa2	-0.1832681
202	0x3a953aca	0.0011385318
203	0x3db935de	0.090434775
204	0xbe08cff5	-0.1336058
205	0x3db80b1e	0.089864954
206	0xbd1b53fe	-0.037921898
207	0x3d96eb8c	0.07369146
208	0x3e2bdb9a	0.1678299
209	0xbe4b3f50	-0.1984837
210	0xbe642387	-0.22279178
211	0x3d75c2dd	0.06000029
212	0x3dd6bfc8	0.10485798
213	0x3d921833	0.07133522
214	0xbe347028	-0.17620909
215	0x3d494929	0.049142037
216	0x3d8f6b1b	0.070028506
217	0x3db0a669	0.0862549
218	0xbd0e9e6c	-0.03481905
219	0xbd80f43c	-0.06296584
220	0x3d902a17	0.07039278
221	0xbe304d74	-0.17217046
222	0xbe463a8a	-0.19358268
223	0x3da99acc	0.08281478
224	0xbdec8fb0	-0.11550844
225	0xbe40fc67	-0.18846284
226	0xbe35d2da	-0.17756215
227	0x3deefc6a	0.11669238
228	0xbe286dde	-0.16448161
229	0xbe14a409	-0.145157
230	0x3ddc3dfd	0.10754011
231	0x3dec6ee8	0.11544591
232	0xbea1c30d	-0.31594124
233	0x3de7357f	0.112895004
234	0xbd293275	-0.041307885
235	0xbd857d83	-0.0651808
236	0x3e5d1300	0.21589279
237	0xbd2c2fdb	-0.042037826
238	0x3d56288e	0.05228477
239	0x3e104fb5	0.14092906
240	0xbe98cc68	-0.2984345
241	0x3d68eb7d	0.056865204
242	0xbd2545fd	-0.04034995
243	0x3d167c01	0.036739353
244	0xbe6038db	-0.21896689
245	0xbe23d284	-0.15998274
246	0xbda623b4	-0.081122786
247	0x3ddbe5a6	0.10737161
248	0x3d9d05ad	0.07667098
249	0xbe8a2c9d	-0.26987162
250	0x3da72fd0	0.081634164
251	0x3d1c4c99	0.038158987
252	0xbe93e719	-0.2888725
253	0x3e25ffe1	0.16210891
254	0x3e2089f3	0.15677623
255	0x3dd8a0ca	0.10577543

fc2.bias f4 [10]
0	0xbe165b7e	-0.14683339
1	0x3ccb1732	0.024791334
2	0xbcc2ca2c	-0.023778044
3	0x3c9fec75	0.019521931
4	0x3d3b6d39	0.04575846
5	0x3d7fd62b	0.062460106
6	0x3d0debfd	0.034648884
7	0xbd4d0f5b	-0.050063472
8	0xbc0302f0	-0.007996306
9	0x3d5fbbe2	0.05462254
