Exercise/best_model.pth (torch, 440230 bytes, 6 tensors)

fc1.weight f4 [128, 784]
-0.020777157 0.011275298 -0.009645265 0.028587304 -0.0213586 -0.018170089 -0.0066614673 -0.0053169746
0.037638746 0.035883315 0.028461672 -0.0017171146 0.013140788 0.009976905 0.012281168 -0.012434676
0.0008225943 -0.00041087912 0.009408243 0.026925592 0.026021026 0.0025138806 0.010581291 -0.032798354
-0.004412092 0.0071159475 -0.03171809 0.019341566 0.017834019 0.033507172 0.028541848 -0.026212465
0.015440156 -0.019590063 0.0018374913 0.027911117 0.02828602 0.0128349 -0.002096333 -0.0067999694
0.0046627326 0.04073553 0.017754408 -0.014645895 0.007065177 0.034907207 -0.031118471 0.01917798
0.030439693 -0.024776286 -0.006442621 -0.026558392 -0.028641136 0.01752217 -0.0017271442 0.0038600387
-0.009561585 0.009986996 -0.017124217 -0.0036508928 0.02281615 -0.009328478 0.016825553 0.038109522
0.034666885 0.01183905 0.004993141 0.035775263 -0.003957422 0.053060066 0.012843056 0.103787675
0.098162085 0.057749595 0.06358728 -0.010682267 0.039857734 0.03039007 0.025056649 -0.022670547
0.0059702545 0.009780417 -0.02508771 0.013046055 -0.013276063 0.0019563583 0.010878886 -0.0063282005
-0.032139793 -0.019482503 0.024959903 -0.008887776 0.013552733 0.08072868 0.017979195 -0.08828245
0.04414937 0.015544964 -0.12160751 -0.040650763 0.042184748 0.035956617 0.114546746 -0.06949287
-0.10991266 -0.09265178 -0.020859329 0.042338572 0.061555065 0.015806938 0.012215502 0.004910628
0.038065914 0.0063841743 -0.013096918 -0.0075912136 -0.006424156 -0.007828192 -0.034721088 0.066104494
0.08381644 0.0877648 0.046381168 0.06918031 0.09284994 0.020805327 0.07714718 0.07439159
0.21066923 0.16763979 0.122173555 0.07339616 -0.059207737 -0.07802635 -0.12199628 -0.047262587
0.01324698 0.028086303 0.04841736 0.015770001 -0.0050863023 0.031502053 0.008471921 0.011177723
0.066640146 -0.052799128 -0.0037553317 0.03660544 -0.10585814 0.056982584 0.08041382 -0.04895787
-0.023887688 -0.13684247 -0.043625645 -0.08611658 0.0122465575 0.020406365 0.08142544 0.14559194
0.050005313 0.204773 0.07605933 -0.02259973 0.05482943 0.0611442 0.054182105 -0.010839196
0.016031317 0.023677843 -0.02999683 -0.0013334778 -0.025990965 -0.10273534 -0.09238407 -0.046060517
-0.07402286 -0.08653106 -0.12456871 -0.05253236 0.016631734 0.04273144 -0.031761304 -0.03436557
-0.120861925 -0.08829568 0.03219962 0.05464561 0.06016335 0.09045995 0.041680373 0.12623867
0.16604729 0.044103246 -0.025384301 -0.006690873 -0.0010812804 0.006779703 -0.035632238 -0.0020376497
0.028383631 -0.0926109 -0.1992251 -0.030605597 0.047880508 -0.08715383 -0.05621939 -0.018780997
0.041191634 -0.036782034 0.08510638 -0.010257645 -0.06722612 -0.096596405 -0.012631203 -0.033686336
-0.07962371 0.059817407 0.14708969 0.12728587 0.08373835 0.11470659 0.07544734 0.0042154975
0.012995561 -0.020517867 0.010913661 -0.02871123 -0.02037791 -0.11563711 -0.051828243 -0.011133334
-0.05979253 -0.018572519 0.05421512 -0.031247534 0.09109121 0.03188678 0.005476109 -0.1131976
-0.13163139 -0.04012869 -0.07461244 0.051305234 0.032782495 0.017927254 0.072118945 -0.01338768
0.0040707886 0.04506878 0.058645897 -0.008490615 -0.0027041235 -0.03096331 -0.04106258 -0.061438676
00000000: db34 aabc 07bc 383c 2c07 1ebc ec2f ea3c
00000010: 3bf8 aebc 70d9 94bc 7048 dabb 043a aebb
00000020: 162b 1a3d 62fa 123d 7428 e93c ce10 e1ba
00000030: 764c 573c 2c76 233c f436 493c d0ba 4bbc
00000040: 5ea3 573a 436b d7b9 0825 1a3c 0f93 dc3c
00000050: 0c2a d53c ebbf 243b 275d 2d3c 9157 06bd
00000060: 4f93 90bb e52c e93b d4ea 01bd 3472 9e3c
00000070: a618 923c d13e 093d 98d0 e93c 86bb d6bc
00000080: b5f8 7c3c 577b a0bc fad7 f03a dba5 e43c
00000090: 15b8 e73c 7949 523c a262 09bb 47d2 debb
000000a0: d6c9 983b 4dda 263d b171 913c 56f5 6fbc
000000b0: 0083 e73b dcfa 0e3d 2aec febc 241b 9d3c
000000c0: aa5c f93c a3f7 cabc 9f1c d3bb fc90 d9bc
000000d0: d1a0 eabc a78a 8f3c 5861 e2ba b4f8 7c3b
000000e0: 32a8 1cbc 7fa0 233c 1648 8cbc d143 6fbb
000000f0: efe8 ba3c 79d6 18bc bed5 893c bb18 1c3d
00000100: ddfe 0d3d 93f8 413c 819d a33b 1589 123d
00000110: 43ad 81bb 8355 593d ae6b 523c a28e d43d
00000120: 3409 c93d d78a 6c3d 0c3a 823d ad04 2fbc
00000130: dd41 233d 99f4 f83c 9a43 cd3c 95b7 b9bc
00000140: 20a2 c33b 0b3e 203c be84 cdbc 1fbf 553c
00000150: d883 59bc 3f36 003b 5b3d 323c cb5c cfbb
00000160: 04a5 03bd c599 9fbc b678 cc3c 099e 11bc
00000170: 480c 5e3c 1455 a53d 1b49 933c 6ecd b4bd
00000180: f8d5 343d 4eb0 7e3c 5c0d f9bd 6a81 26bd
00000190: eac9 2c3d 3f47 133d 7c97 ea3d 4752 8ebd
000001a0: e419 e1bd 37c0 bdbd 2fe1 aabc 366b 2d3d
000001b0: 2a21 7c3d 8d7d 813c 8723 483c 55e9 a03b
000001c0: 01eb 1b3d 5632 d13b 7594 56bc b7bf f8bb
000001d0: ba81 d2bb d141 00bc b337 0ebd cb61 873d
000001e0: f4a7 ab3d 08be b33d 2efa 3d3d 68ae 8d3d
000001f0: 1c28 be3d ef6f aa3c 57ff 9d3d 9e5a 983d
00000200: adb9 573e c4a9 2b3e 2136 fa3d ba50 963d
00000210: d083 72bd 47cc 9fbd 30d9 f9bd 6a96 41bd
00000220: dc09 593c 3f15 e63c 4851 463d 1730 813c
00000230: ffaa a6bb 4c08 013d d0cd 0a3c c522 373c
00000240: a17a 883d e643 58bd 031c 76bb 96ef 153d
00000250: 27cc d8bd 9266 693d 00b0 a43d 0c88 48bd
00000260: 1db0 c3bc 6f20 0cbe ceb0 32bd e45d b0bd
00000270: c9a5 483c 402b a73c 62c2 a63d 0e16 153e
00000280: 5fd2 4c3d 03b0 513e fec4 9b3d 1223 b9bc
00000290: d394 603d 5772 7a3d 0eee 5d3d e296 31bc
000002a0: 1c54 833c 09f8 c13c e9bb f5bc 17c8 aeba
000002b0: 01eb d4bc e866 d2bd dc33 bdbd f4a9 3cbd
000002c0: 4c99 97bd 3237 b1bd e11d ffbd 2c2c 57bd
000002d0: 463f 883c 2a07 2f3d 2418 02bd e9c2 0cbd
000002e0: 7586 f7bd 5ed4 b4bd c0e3 033d 13d4 5f3d
000002f0: d86d 763d 1143 b93d 0ab9 2a3d b644 013e
00000300: 4d08 2a3e 9ba5 343d bdf2 cfbc 1c3f dbbb
00000310: c0b9 8dba 4528 de3b 1cf3 11bd 178a 05bb
00000320: ca84 e83c c9aa bdbd aa01 4cbe 97b8 fabc
00000330: 5a1e 443d b57d b2bd 4e46 66bd 9bda 99bc
00000340: 8fb8 283d c2a8 16bd 414c ae3d ae0f 28bc
00000350: d9ad 89bd 56d4 c5bd 1bf3 4ebc affa 09bd
00000360: c111 a3bd 1903 753d ae9e 163e 3a57 023e
00000370: 037f ab3d 4aeb ea3d 2384 9a3d 2822 8a3b
00000380: 55eb 543c 1615 a8bc 36cf 323c d033 ebbc
00000390: 93ef a6bc 26d3 ecbd da49 54bd 9668 36bc
000003a0: 03e9 74bd 6525 98bc ac10 5e3d d4fa ffbc
000003b0: 078e ba3d b69b 023d ef70 b33b 25d4 e7bd
000003c0: 61ca 06be fb5d 24bd 68ce 98bd 7025 523d
000003d0: f046 063d 2ddc 923c 19b3 933d 0058 5bbc
000003e0: 4064 853b 0b9a 383d ae36 703d 381c 0bbc
000003f0: aa37 31bb c4a6 fdbc 3c31 28bd 1fa7 7bbd

fc1.bias f4 [128]
-0.029699402 -0.05229493 -0.027158905 -0.035568733 -0.026977064 -0.031068925 -0.052371502 -0.040120583
-0.02581103 -0.037218913 -0.028587595 -0.006787352 -0.07439435 -0.045958094 -0.009592782 -0.026108557
-0.021111773 0.0032739628 -0.044295244 -0.006352646 0.004576676 -0.0593662 -0.040467817 -0.02979336
0.0097394725 0.010416855 -0.026272265 -0.070019044 0.007321549 -0.052458704 0.0040662293 -0.022093188
0.017791549 0.018971503 -0.022190608 -0.08393356 0.0016244946 0.0072235954 0.025670273 -0.061545804
-0.022550058 -0.081490755 -0.018876657 0.021893715 -0.004197574 -0.026150726 -0.004390933 -0.044387914
-0.0014421637 0.007472213 0.004196591 0.010654702 0.0076165744 -0.05181831 -0.017258847 -0.016175076
-0.024979066 0.020955237 0.038063228 -0.014162591 -0.031228282 -0.049041003 -0.011215026 -0.014054795
0.010780423 0.0035086717 -0.055983067 -0.05638459 -0.041348487 -0.03957962 -0.018950835 -0.049340785
-0.021402372 -0.041373562 -0.0066152117 -0.033402953 -0.039323926 0.0045408797 -0.018695537 -0.020868475
-0.008619736 -0.00016764789 -0.029048454 -0.0075878594 0.0056405137 -0.016056336 0.022159414 -0.029555997
-0.016906133 -0.025030851 -0.008415413 -0.060380418 -0.02000702 -0.016504785 -0.00046119466 0.006577479
-0.00026851724 -0.055458475 -0.037042473 -0.009363257 -0.07437227 -0.049712557 -0.05512545 0.018479913
0.009210801 -0.02237045 -0.008853849 0.0055701016 0.0034909134 -0.020911654 -0.04408536 -0.040309403
-0.041902404 0.04124045 -0.018021284 -0.02991065 0.024560727 -0.062044103 0.032843683 0.0017438718
-0.036522135 -0.009750022 0.02004373 -0.004306572 -0.030791601 -0.048380516 0.009339482 -0.01752995
00000000: 294c f3bc 3533 56bd 5a7c debc 85b0 11bd
00000010: 01ff dcbc 4284 febc 8083 56bd 7b55 24bd
00000020: a771 d3bc dc72 18bd 8830 eabc 6f68 debb
00000030: 115c 98bd 8e3e 3cbd 0b2b 1dbc 9de1 d5bc
00000040: 99f2 acbc fb8f 563b ee6e 35bd db29 d0bb
00000050: f1f7 953b f929 73bd 95c1 25bd 3411 f4bc
00000060: 4f92 1f3c 75ab 2a3c ef38 d7bc 2566 8fbd
00000070: 9be9 ef3b f0de 56bd 013e 853b c6fc b4bc
00000080: 95bf 913c 206a 9b3c 14c9 b5bc 5ce5 abbd
00000090: feec d43a e9b3 ec3b 774a d23c 7417 7cbd
000000a0: e6ba b8bc a0e4 a6bd 38a3 9abc 735a b33c
000000b0: ce8b 89bb 0c3a d6bc d1e1 8fbb 1ad0 35bd
000000c0: fc06 bdba 77d9 f43b 8f83 893b 0f91 2e3c
000000d0: 7594 f93b 703f 54bd 6d62 8dbc 9881 84bc
000000e0: e6a0 ccbc 51aa ab3c 30e8 1b3d 360a 68bc
000000f0: 74d2 ffbc 38df 48bd 3abf 37bc 1546 66bc
00000100: 5fa0 303c bef1 653b 804e 65bd 87f3 66bd
00000110: 085d 29bd 3d1e 22bd c83e 9bbc 9019 4abd
00000120: 0754 afbc 5377 29bd 6bc4 d8bb 89d1 08bd
00000130: 2012 21bd a9cb 943b 6227 99bc 5df4 aabc
00000140: cb39 0dbc a3ca 2fb9 06f7 edbc 94a3 f8bb
00000150: 0fd4 b83b 9488 83bc a987 b53c 6b1f f2bc
00000160: bb7e 8abc 800d cdbc cde0 09bc 7551 77bd
00000170: c3e5 a3bc 0b35 87bc 80cc f1b9 e587 d73b
00000180: c6c7 8cb9 6d28 63bd d9b9 17bd 5968 19bc
00000190: 7d50 98bd 659f 4bbd 39cb 61bd 3063 973c
000001a0: e6e8 163c 3c42 b7bc bc0f 11bc 6685 b63b
000001b0: cfc7 643b eb4e abbc da92 34bd 791b 25bd
000001c0: dba1 2bbd bfeb 283d 5fa1 93bc 2e07 f5bc
000001d0: 9433 c93c f521 7ebd 1987 063d a192 e43a
000001e0: 3c98 15bd 8ebe 1fbc c032 a43c 251e 8dbb
000001f0: ab3e fcbc a62a 46bd a004 193c f89a 8fbc

fc2.weight f4 [64, 128]
0.1673356 0.0151317185 -0.0029214995 -0.17699066 0.05835868 0.029242557 0.013766968 -0.21722877
-0.066306144 0.11450139 0.077949144 -0.041787904 0.07103864 0.044362187 0.09823256 0.05229809
-0.09707649 0.10485417 -0.24944216 0.016385607 0.0674314 -0.067502275 -0.060673915 -0.05771326
-0.024002315 -0.06813338 -0.007106915 0.2813162 -0.06302586 -0.11036926 0.08085731 0.2507793
-0.033012424 0.040981185 -0.00956768 -0.21543075 0.057885855 0.0008346301 -0.020786276 0.0027764656
-0.090911284 0.0546773 0.001589475 -0.2056332 -0.095277004 0.14123407 -0.068550095 -0.08799544
0.13750127 0.17838044 -0.18296388 -0.027046813 0.07191039 0.087401256 -0.042811632 0.04874172
-0.018138919 -0.08231634 -0.050542373 -0.08588193 0.17265108 0.03623086 0.059513077 -0.082559116
-0.14390934 -0.22678925 -0.0076641818 0.062386446 -0.1753194 0.030982431 0.28170317 0.05724565
0.06374449 0.06911887 0.042434167 0.04714733 0.050867073 0.040071692 -0.040311385 -0.32871798
0.11433388 0.14604175 -0.013024426 -0.047900565 -0.084220104 -0.13139632 0.21683875 -0.0012451446
-0.06553436 0.03464258 0.09622608 -0.089860596 -0.083470784 -0.34168202 -0.18298042 -0.15244164
-0.11007823 0.11637748 -0.085545875 -0.0152124325 -0.15399963 0.021054775 -0.31134346 0.11707434
0.054449305 -0.04308115 -0.0324711 -0.031245101 -0.33572006 0.2388134 0.04647941 -0.12511036
0.11004315 0.023152247 -0.063967 -0.2887329 -0.042317208 0.12655179 0.009124768 -0.15233225
-0.050433367 0.21666457 0.0018505586 0.2853197 -0.062166862 0.07804712 0.0735272 -0.03611124
-0.16932207 -0.043013964 0.06299172 -0.016221333 -0.042252015 -0.15536264 0.048059188 -0.0011670727
0.03225801 0.06676044 0.05272414 -0.053843245 -0.051472656 0.093659334 0.043307804 -0.04404107
0.10039713 -0.025733918 0.06438499 0.06744281 -0.03972668 0.10526123 -0.0051329057 0.0738776
0.23331673 -0.071264654 0.06682968 0.04456162 0.03385841 -0.08730697 0.025132691 0.018374441
0.041439943 0.30577686 -0.012989059 0.0994028 -0.048491266 -0.10858771 -0.28949958 0.23631652
-0.010491133 -0.011571589 0.014372829 0.06080784 0.07764738 0.090978116 -0.32533208 0.02027216
-0.24476242 0.028716704 -0.5057801 -0.050103433 -0.14209737 -0.008731487 -0.10088397 -0.029355213
-0.06502305 -0.07745357 -0.012353516 -0.06042255 0.09950832 0.1420458 0.0058043497 0.2168586
-0.024476068 -0.2900089 -0.13297215 -0.092606254 -0.4484372 0.08951491 0.015396249 0.061622538
-0.07554585 0.02667616 -0.44746035 -0.023078294 0.0121688275 0.08555421 -0.055383228 0.07530849
0.025790771 -0.10671627 0.04475727 0.03641824 0.079137474 0.030054841 0.05240618 0.07917238
0.07958383 -0.00673801 -0.071580015 0.2263392 -0.0439169 -0.13366675 -0.2871546 0.1632143
-0.07488748 0.019688837 0.06405622 0.045242164 -0.0008116278 0.050615087 0.11807614 0.0659318
0.025576767 0.08815744 0.09385186 0.17950416 0.044676557 -0.18398516 0.14919622 -0.117878616
0.010229674 0.013330534 -0.2957787 0.080727264 -0.4181215 0.010541989 0.06110649 0.15933545
0.03656106 0.10808958 0.12566918 0.2714311 0.18285109 -0.01369028 -0.119053714 -0.31016386
00000000: 065a 2b3e 07eb 773c a176 3fbb 0a3d 35be
00000010: 8309 6f3d 168e ef3c d98e 613c 3871 5ebe
00000020: 84cb 87bd b47f ea3d cda3 9f3d cb29 2bbd
00000030: b57c 913d 20b5 353d 272e c93d 8636 563d
00000040: 0ad0 c6bd c8bd d63d c46d 7fbe 1c3b 863c
00000050: 7919 8a3d a23e 8abd 3685 78bd bd64 6cbd
00000060: 81a0 c4bc 8389 8bbd 20e1 e8bb ad08 903e
00000070: b413 81bd 4709 e2bd 8498 a53d 2566 803e
00000080: 0938 07bd e3db 273d c2c1 1cbc e199 5cbe
00000090: b819 6d3d 14cb 5a3a fb47 aabc 5df5 353b
000000a0: b22f babd 4ef5 5f3d ee55 d03a 8291 52be
000000b0: 9720 c3bd aa9f 103e fe63 8cbd f436 b4bd
000000c0: 22cd 0c3e 5da9 363e e25a 3bbe 4791 ddbc
000000d0: c145 933d 6eff b23d 405b 2fbd 66a5 473d
000000e0: 1298 94bc 7895 a8bd 8505 4fbd dee2 afbd
000000f0: 72cb 303e cf66 143d fcc3 733d c114 a9bd
00000100: f85c 13be 713b 68be d123 fbbb ee88 7f3d
00000110: ee86 33be dece fd3c 663b 903e 6a7a 6a3d
00000120: 798c 823d 328e 8d3d 73cf 2d3d 8f1d 413d
00000130: fe59 503d 3722 243d 8d1d 25bd b94d a8be
00000140: e227 ea3d f88b 153e 6764 55bc 6233 44bd
00000150: 977b acbd c28c 06be fa0a 5e3e 1f34 a3ba
00000160: e136 86bd 61e5 0d3d 2e12 c53d d508 b8bd
00000170: bbf2 aabd f2f0 aebe 385f 3bbe a919 1cbe
00000180: b270 e1bd 5157 ee3d ad32 afbd 913d 79bc
00000190: 14b2 1dbe 107b ac3c 6968 9fbe acc4 ef3d
000001a0: 3c06 5f3d dc75 30bd 6b00 05bd baf5 ffbc
000001b0: 80e3 abbe 808b 743e 3261 3e3d ee1c 00be
000001c0: 4e5e e13d c8a9 bd3c 2101 83bd ccd4 93be
000001d0: cf54 2dbd cb96 013e 0d80 153c fcfc 1bbe
000001e0: 3893 4ebd 51dd 5d3e 718e f23a 6c15 923e
000001f0: aea2 7ebd 2bd7 9f3d 6e95 963d 61e9 13bd
00000200: c462 2dbe 692f 30bd ce01 813d 9ae2 84bc
00000210: 7310 2dbd 6217 1fbe b6d9 443d 76f8 98ba
00000220: fa20 043d b3b9 883d 45f5 573d bc8a 5cbd
00000230: fed4 52bd 77d0 bf3d 8663 313d 6964 34bd
00000240: 039d cd3d f0cf d2bc 47dc 833d 751f 8a3d
00000250: 71b8 22bd 3393 d73d ef31 a8bb 244d 973d
00000260: 95ea 6e3e 34f3 91bd 00de 883d 3f86 363d
00000270: 1eaf 0a3d ffcd b2bd 13e3 cd3c ff85 963c
00000280: eebc 293d c98e 9c3e 10d0 54bc b293 cb3d
00000290: c79e 46bd 3c63 debd 4a39 94be f5fc 713e
000002a0: 00e3 2bbc c396 3dbc 047c 6b3c a411 793d
000002b0: 9705 9f3d bc52 ba3d ed91 a6be cd11 a63c
000002c0: 00a3 7abe 4b3f eb3c ce7a 01bf 4239 4dbd
000002d0: f981 11be 830e 0fbc 419c cebd 587a f0bc
000002e0: ce2a 85bd fa9f 9ebd 6766 4abc a37d 77bd
000002f0: 05cb cb3d 7474 113e 6a32 be3b 2e10 5e3e
00000300: 0982 c8bc 0c7c 94be da29 08be 59a8 bdbd
00000310: 9099 e5be 9853 b73d 8c40 7c3c ea67 7c3d
00000320: c8b7 9abd f687 da3c 8619 e5be b10e bdbc
00000330: c35f 473c 0c37 af3d 86d9 62bd 563b 9a3d
00000340: 2b47 d33c 0f8e dabd 6653 373d 4b2b 153d
00000350: d412 a23d 9235 f63c dda7 563d 2125 a23d
00000360: d9fc a23d 86ca dcbb 8b98 92bd 77c5 673e
00000370: 35e2 33bd f0df 08be ed05 93be a621 273e
00000380: 9b5e 99bd 7c4a a13c e82f 833d d94f 393d
00000390: 6bc3 54ba c451 4f3d e7d1 f13d 4007 873d
000003a0: 5e86 d13c e38b b43d 6735 c03d f0cf 373e
000003b0: c4fe 363d 9b66 3cbe e5c6 183e 586a f1bd
000003c0: 5d9a 273c 5068 5a3c 4e70 97be 5654 a53d
000003d0: 0514 d6be 4eb8 2c3c cd4a 7a3d d528 233e
000003e0: 0dc1 153d 125e dd3d 6caf 003e 04f9 8a3e
000003f0: 513d 3b3e 324d 60bc 6fd2 f3bd cccd 9ebe

fc2.bias f4 [64]
0.23392321 0.0969557 -0.011879537 -0.092111036 0.0097543225 0.10429282 0.36301756 0.37916002
-0.20352194 -0.29842263 0.27491006 0.17862444 -0.31197602 -0.2282026 0.041036353 0.5124492
0.017051393 0.18767612 -0.14251241 0.040688474 0.3309628 -0.033698387 0.038863443 0.16115828
-0.009651247 -0.07000942 0.22013964 -0.15038158 -0.022982934 0.16812736 0.21612142 0.11367842
-0.34957418 0.15356804 0.035682227 0.36756247 0.11011662 0.06835959 0.099471375 0.34323978
0.21998031 0.011818412 0.18278752 -0.0027184682 0.13690895 -0.052559514 -0.01768911 -0.0028276853
0.23122114 0.08403431 0.0004969625 0.009654965 0.118844345 -0.17282546 0.15806164 0.050505016
-0.025934268 0.041138265 0.115977034 0.22035119 -0.018896565 0.016264383 -0.08552464 0.2981314
00000000: 9189 6f3e b690 c63d 64a2 42bc b6a4 bcbd
00000010: 98d0 1f3c 7997 d53d 70dd b93e 4321 c23e
00000020: 0e68 50be daca 98be 03c1 8c3e 53e9 363e
00000030: 52bb 9fbe f1ad 69be bc15 283d df2f 033f
00000040: 5daf 8b3c 2b2e 403e c6ee 11be f5a8 263d
00000050: f573 a93e 5207 0abd 462f 1f3d ad06 253e
00000060: 4420 1ebc 1961 8fbd 496c 613e a1fd 19be
00000070: b546 bcbc 9429 2c3e ef4e 5d3e 3bd0 e83d
00000080: 63fb b2be f140 1d3e 8727 123d 2631 bc3e
00000090: d384 e13d 1d00 8c3d a6b7 cb3d 20bd af3e
000000a0: 8542 613e 03a2 413c a72c 3b3e 5428 32bb
000000b0: dc31 0c3e a548 57bd c1e8 90bc b050 39bb
000000c0: 3cc5 6c3e 2e1a ac3d 9746 023a dc2f 1e3c
000000d0: aa64 f33d 28f9 30be e9da 213e 59de 4e3d
000000e0: 1a74 d4bc 9980 283d 5e85 ed3d bea3 613e
000000f0: f8cc 9abc e23c 853c 8b27 afbd aea4 983e

out.weight f4 [10, 64]
-0.402124 0.14197876 -0.022699246 0.1265374 -0.20059267 0.14285678 -0.097424805 0.16053034
0.22040005 0.10761084 0.12690015 -0.23017362 -0.08201357 -0.17982636 -0.1650722 0.25624532
-0.06406474 0.06750149 0.113948986 -0.28406084 -0.0194276 -0.44898045 0.049306363 0.18102352
-0.56136197 -0.12135624 -0.119881555 0.18476227 -0.27655545 0.1812723 0.029164875 -0.32771537
0.141024 -0.02297653 -0.12817413 0.110280484 -0.18542793 -0.1766936 0.0732294 -0.3044631
-0.2693447 -0.12869461 0.15541175 -0.3059285 0.021270378 0.23480977 -0.28371623 0.24847335
0.07761078 -0.23616582 0.12338088 -0.35537973 0.080488674 0.12238264 -0.30636767 0.10119995
-0.12915288 -0.265334 0.11079161 0.09787032 0.17369087 0.108601004 -0.29321566 -0.17280734
0.13319057 -0.35184228 0.20670602 -0.35056043 0.022902515 -0.14459448 -0.15239489 -0.10399915
-0.1365158 -0.14942561 -0.33390436 0.081119776 0.0771494 0.058470856 0.17308989 -0.09041693
-0.13553175 -0.10525393 -0.015226762 -0.25298133 0.17177892 0.07631084 -0.22266655 -0.34260246
-0.13169524 0.15793632 -0.10298847 -0.105460234 0.05165644 0.19577068 -0.36727637 -0.35175866
0.16474259 0.13437903 0.10581908 -0.26483107 -0.09103109 0.15772581 -0.29903802 0.1838374
-0.278245 0.2579922 -0.3901139 0.15136823 -0.1374097 0.20634018 0.20129596 0.12775715
-0.10314895 0.1256989 -0.16616763 -0.24969529 -0.20003784 0.10753376 0.17812836 -0.20639665
0.19549082 -0.21461764 0.17640091 -0.11190665 -0.24196146 -0.16900277 -0.17284667 0.09171352
0.038592726 -0.21609648 0.015692947 -0.2470607 0.076594315 -0.04333363 -0.23190066 0.052760057
0.182867 -0.10207483 -0.122356735 0.1429286 0.07177374 0.1341124 -0.4029647 -0.019464666
0.000407882 0.1349114 0.17851527 0.15712377 -0.079100594 -0.30543607 0.091933146 0.0022309362
0.08378596 -0.35972887 -0.2820226 0.1881645 0.07811411 0.0411979 0.11701226 -0.27013925
0.15163343 -0.19907868 0.1261794 -0.38318816 0.16888145 -0.3548479 0.0348395 -0.4103007
0.042522863 0.01833246 -0.14238946 0.07553543 -0.2443682 -0.11783878 -0.33808088 -0.14445452
0.053184576 0.107748 0.18498038 0.07295577 -0.2976246 0.09417058 -0.36055344 -0.13412555
0.14007625 -0.13768454 0.022826428 0.09133059 -0.17891032 -0.017756354 0.16033266 0.085245304
-0.24969636 -0.3156713 -0.18372843 0.145384 0.13983679 -0.038618043 -0.004936559 -0.016204894
-0.03375785 0.19033118 -0.24449934 0.09165865 0.10621814 0.14790398 -0.24471678 -0.03920374
0.13836326 0.009007904 -0.011109551 -0.26618922 -0.33074978 0.117533535 0.10971348 0.13143775
-0.013414673 0.17639774 -0.21694466 -0.24453473 0.08331348 -0.020088302 -0.062934324 0.14768016
0.002887635 -0.08642132 0.112203926 -0.10117424 0.21335952 0.12360334 0.06292177 0.033609524
-0.26679164 -0.07270063 -0.16318326 -0.22735922 -0.09640598 0.0255822 -0.38788265 -0.15372488
0.07040916 0.06571844 -0.29852128 -0.040323894 -0.07686222 0.07337363 0.17047548 -0.3769877
-0.34813997 -0.014407645 -0.27123675 -0.024520408 -0.15355256 -0.25718126 0.15830487 0.06502686
00000000: 32e3 cdbe e162 113e c5f3 b9bc 0593 013e
00000010: 2a68 4dbe 0c49 123e a886 c7bd 1162 243e
00000020: 8db0 613e 1263 dc3d 1df2 013e a2b2 6bbe
00000030: bbf6 a7bd 6724 38be b008 29be 9632 833e
00000040: 6034 83bd 393e 8a3d 165e e93d 6c70 91be
00000050: a126 9fbc c4e0 e5be 78f5 493d 3b5e 393e
00000060: 6bb5 0fbf 9f89 f8bd 7684 f5bd 5232 3d3e
00000070: ad98 8dbe 729f 393e 2deb ee3c 4fca a7be
00000080: 9868 103e 4739 bcbc 1440 03be bcda e13d
00000090: d2e0 3dbe 2bef 34be 4cf9 953d 96e2 9bbe
000000a0: 8ce7 89be 85c8 03be 4224 1f3e a9a2 9cbe
000000b0: 373f ae3c f971 703e 4143 91be cc6f 7e3e
000000c0: 67f2 9e3d 74d5 71be 1daf fc3d 55f4 b5be
000000d0: 3fd7 a43d c0a3 fa3d 39dc 9cbe eb41 cf3d
000000e0: a740 04be dcd9 87be b6e6 e23d 3c70 c83d
000000f0: 05dc 313e 346a de3d 5d20 96be 68f4 30be
00000100: 1c63 083e ac24 b4be beaa 533e a87c b3be
00000110: 0e9e bb3c 9310 14be 680d 1cbe 82fd d4bd
00000120: ccca 0bbe 0703 19be 83f5 aabe 2022 a63d
00000130: 8100 9e3d 237f 6f3d 7a3e 313e 832c b9bd
00000140: d6c8 0abe 5f8f d7bd ab79 79bc c586 81be
00000150: d0e6 2f3e dc48 9c3d b302 64be 9769 afbe
00000160: 1edb 06be 0fba 213e 9eeb d2bd 89fb d7bd
00000170: b495 533d 1c78 483e a60b bcbe b619 b4be
00000180: 48b2 283e a89a 093e acb7 d83d f097 87be
00000190: 826e babd e082 213e 831b 99be df3f 3c3e
000001a0: 2176 8ebe 8e17 843e 02bd c7be 4600 1b3e
000001b0: 21b5 0cbe d74a 533e 8720 4e3e c5d2 023e
000001c0: c23f d3bd 36b7 003e d927 2abe 1fb0 7fbe
000001d0: b8d6 4cbe a93a dc3d 4867 363e a559 53be
000001e0: bf2e 483e bac4 5bbe 71a2 343e 502f e5bd
000001f0: bfc4 77be 100f 2dbe b8fe 30be 4cd4 bb3d
00000200: 6813 1e3d 6548 5dbe 7f8e 803c 7bfd 7cbe
00000210: 7bdd 9c3d 9b7e 31bd 5e77 6dbe ee1a 583d
00000220: 7d41 3b3e 9c0c d1bd 2b96 fabd e05b 123e
00000230: 1cfe 923d c354 093e 6451 cebe 5d74 9fbc
00000240: ffd8 d539 3726 0a3e b5cc 363e 0ee5 203e
00000250: 7eff a1bd 1e62 9cbe 7247 bc3d e634 123b
00000260: f997 ab3d 622e b8be 4465 90be 32ae 403e
00000270: 4afa 9f3d 21bf 283d 20a4 ef3d b14f 8abe
00000280: cb45 1b3e 48db 4bbe 2c35 013e 3d31 c4be
00000290: 42ef 2c3e a0ae b5be ddb3 0e3d ef12 d2be
000002a0: 742c 2e3d f52d 963c 8bce 11be 52b2 9a3d
000002b0: a83b 7abe 7555 f1bd f018 adbe e3eb 13be
000002c0: 12d8 593d fcaa dc3d 7f6b 3d3e d669 953d
000002d0: 4062 98be 81dc c03d 769a b8be 3558 09be
000002e0: 2670 0f3e 2dfd 0cbe 7dfe ba3c 880b bb3d
000002f0: 4434 37be c675 91bc 3f2e 243e 1795 ae3d
00000300: 67b0 7fbe ab9f a1be 4e23 3cbe 8bdf 143e
00000310: 6031 0f3e f42d 1ebd dcc2 a1bb 20c0 84bc
00000320: ac45 0abd 2de6 423e 095e 7abe 88b7 bb3d
00000330: e588 d93d 2474 173e 0997 7abe 1a94 20bd
00000340: 19af 0d3e e395 133c d604 36bc f449 88be
00000350: 0958 a9be 6cb5 f03d 76b1 e03d 9e97 063e
00000360: 37c9 5bbc 9ca1 343e be26 5ebe 5067 7abe
00000370: 42a0 aa3d 3990 a4bc b6e3 80bd 7839 173e
00000380: 7a3e 3d3b a9fd b0bd 2ccb e53d 7134 cfbd
00000390: eb7a 5a3e bf23 fd3d 21dd 803d 24aa 093d
000003a0: ea98 88be 11e4 94bd 8319 27be dbd0 68be
000003b0: 8070 c5bd c391 d13c 8e98 c6be 0e6a 1dbe
000003c0: ad32 903d 6497 863d c8d7 98be ab2a 25bd
000003d0: f169 9dbd ea44 963d 2091 2e3e 8804 c1be
000003e0: 673f b2be 0b0e 6cbc 8bdf 8abe 06df c8bc
000003f0: e23c 1dbe 43ad 83be ac1a 223e cd2c 853d

out.bias f4 [10]
0.0037730047 -0.044546455 -0.06386964 -0.1201557 -0.11490833 -0.18598701 -0.035622034 -0.08858512
0.32462782 0.040351216
00000000: 8444 773b 5876 36bd 16ce 82bd 3114 f6bd
00000010: 0f55 ebbd 6173 3ebe 69e8 11bd 1e6c b5bd
00000020: 9e35 a63e 5147 253d
