Exercise/best_model.pth (torch, 440230 bytes, 6 tensors)

fc1.weight f4 [128, 784]
0.02050811 -0.00013214874 -0.009905342 0.015143357 0.033201065 0.038911536 0.020006455 -0.022026826
-0.022751601 0.008884426 0.021922363 -0.008078334 0.026119642 0.00075976236 0.0322782 -0.013019987
0.03534532 0.034653515 -0.00059547496 0.018051185 0.013552574 0.008215664 -0.0211222 -0.0061653196
0.0045961174 -0.013608007 0.0012205434 -0.02497265 0.030989004 0.033373136 0.019212348 0.04056672
-0.01406767 0.018256329 0.013193055 0.009421099 0.01902614 0.0021398398 0.005903014 0.018893054
0.00050377933 0.019512411 -0.021376973 0.013060757 -0.025125992 0.04604053 0.059269737 0.025823928
0.042380754 0.028982924 0.016470652 0.028480647 0.01636132 0.029812194 -0.002566597 0.042868048
0.028477635 -0.025495203 0.010490187 0.030731177 -0.0010724639 0.02435677 0.030698996 0.021739867
0.02563106 0.019302117 0.0071223765 0.12105769 0.08931437 0.014966481 0.0058657625 0.08327392
0.077512465 0.10180575 0.043591093 0.05022797 0.030179733 0.04970597 0.0791243 0.022892118
0.0036814748 -0.034252275 0.03269896 -0.008413319 0.031675883 -0.017991506 0.0055760858 0.027527286
0.040210195 0.046143457 0.033881232 0.08700092 0.053661786 0.06812782 0.11979158 0.031261094
0.037274286 0.11350872 0.12554991 0.09174542 0.07957227 0.060874682 -0.0032891352 0.02602908
0.047711063 0.03611343 0.0022397405 0.010676702 0.019217515 0.030889843 -0.017193569 -0.00035141397
-0.012742295 -0.022272624 -0.011005929 0.014321463 -0.00020159695 -0.011562588 0.052929178 0.03460661
0.031153893 -0.010035047 0.07631092 -0.012498823 0.018963646 0.07542049 0.11513979 0.07451125
0.013178415 0.038547765 0.018899532 -0.048837077 -0.100631855 -0.10950517 -0.043365944 -0.046694312
-0.02983 -0.04231993 0.0036406154 0.03996412 0.012918634 -0.014586411 0.02886002 0.005028465
0.00087350316 -0.0038886133 -0.0043963515 -0.0605864 0.01853532 0.052167397 0.079737075 -0.07978433
-0.02987455 0.007490624 0.07162577 0.06762497 0.040672433 0.012333139 -0.10741279 -0.16051291
-0.1107613 -0.14867105 -0.18162596 -0.113662414 -0.08105768 -0.028588649 -0.013446379 0.004014243
-0.020770622 -0.018364687 0.018189555 -0.016761186 -0.020839913 7.291979e-05 0.061394475 -0.025749
0.03385685 0.02071395 -0.06853576 -0.074849844 -0.025759464 -0.022306185 0.014735198 -0.007252344
-0.030796397 -0.15645038 -0.31799024 -0.20359434 -0.20546852 -0.17083436 -0.07504016 -0.12276687
0.014558455 -0.029936954 -0.0068441485 0.0013194521 -0.011509432 -0.005088984 -0.020558914 -0.009990497
0.0061104693 0.022859992 0.022461392 0.011853293 0.07936929 0.0955421 0.071095094 -0.029158149
-0.06299036 -0.12654862 -0.099206306 -0.087087974 -0.1492828 -0.26960656 -0.34970364 -0.24377786
-0.22563621 -0.16613977 -0.15624866 -0.14388655 0.060103904 0.008924975 -0.0095823975 0.0074115754
0.042876296 0.03371101 0.024941226 -0.04546699 -0.013317918 -0.028283255 -0.049361113 -0.019093487
0.031375337 0.015680425 -0.04800026 -0.024007637 -0.049881384 -0.050068315 -0.09374506 -0.17987299
-0.32221755 -0.33274755 -0.3362521 -0.21981838 -0.043332864 -0.046097666 -0.07008766 -0.08102532
0.011358542 0.0073232297 -0.067371584 0.035124604 -0.015319895 -0.021587996 0.038478967 -0.049302958
00000000: a000 a83c 6891 0ab9 044a 22bc d81b 783c
00000010: d7fd 073d b461 1f3d 94e4 a33c 9a71 b4bc
00000020: 9161 babc fc8f 113c 8796 b33c fd5a 04bc
00000030: dcf8 d53c ca2a 473a 2536 043d c951 55bc
00000040: 41c6 103d d8f0 0d3d a619 1cba 14e0 933c
00000050: 9e0b 5e3c fe9a 063c 7708 adbc 7306 cabb
00000060: 079b 963b 1ef4 5ebc a4fa 9f3a 7193 ccbc
00000070: a7dc fd3c 45b2 083d 3763 9d3c 4a29 263d
00000080: 167c 66bc 4c8e 953c af27 583c f45a 1a3c
00000090: b5dc 9b3c 8e3c 0c3b 126e c13b 9bc5 9a3c
000000a0: 0f10 043a 7ed8 9f3c c31e afbc c9fc 553c
000000b0: 06d5 cdbc ff94 3c3d d3c4 723d b48c d33c
000000c0: 7197 2d3d 996d ed3c 76ed 863c 3f50 e93c
000000d0: 2d08 863c b438 f43c 5a34 28bb 6896 2f3d
000000e0: ee49 e93c 51db d0bc 09df 2b3c f3bf fb3c
000000f0: eb91 8cba d987 c73c 767c fb3c ce17 b23c
00000100: 3bf8 d13c 791f 9e3c d362 e93b 18ed f73d
00000110: 74ea b63d f935 753c 9535 c03b 848b aa3d
00000120: dbbe 9e3d 887f d03d 938c 323d d8bb 4d3d
00000130: 7d3b f73c 7d98 4b3d ec0b a23d 4088 bb3c
00000140: e644 713b 1d4c 0cbd 58ef 053d 04d8 09bc
00000150: 92be 013d ec62 93bc 99b7 b63b e780 e13c
00000160: 72b3 243d ec00 3d3d 0cc7 0a3d 8a2d b23d
00000170: 76cc 5b3d 9986 8b3d 4a55 f53d a20b 003d
00000180: ecac 183d 4377 e83d 2890 003e 06e5 bb3d
00000190: c9f6 a23d bb57 793d 888e 57bb f03a d53c
000001a0: ad6c 433d adeb 133d 9cc8 123b 55ed 2e3c
000001b0: 0d6e 9d3c b20c fd3c 87d9 8cbc fc3d b8b9
000001c0: 0fc5 50bc 1475 b6bc 3652 34bc 92a4 6a3c
000001d0: c563 53b9 0271 3dbc 44cc 583d a9bf 0d3d
000001e0: 7336 ff3c 0a6a 24bc e648 9c3d ddc7 4cbc
000001f0: a659 9b3c 0f76 9a3d 69ce eb3d 5b99 983d
00000200: 47ea 573c 43e4 1d3d 31d3 9a3c 6309 48bd
00000210: 1318 cebd 3f44 e0bd 7da0 31bd 8942 3fbd
00000220: 0b5e f4bc aa57 2dbd 6497 6e3b 6bb1 233d
00000230: aea8 533c d8fb 6ebc d96b ec3c d2c5 a43b
00000240: cefb 643a 1bd8 7ebb 450f 90bb 7229 78bd
00000250: 62d7 973c 7bad 553d 314d a33d f865 a3bd
00000260: 79bb f4bc e973 f53b 88b0 923d f67e 8a3d
00000270: 2398 263d ef10 4a3c 3dfb dbbd 7f5d 24be
00000280: d2d6 e2bd 393d 18be 28fc 39be d7c7 e8bd
00000290: 9201 a6bd be32 eabc 344e 5cbc e989 833b
000002a0: 2727 aabc 8a71 96bc 4302 953c c14e 89bc
000002b0: 77b8 aabc 84ec 9838 c678 7b3d 91ef d2bc
000002c0: 7bad 0a3d 4db0 a93c 7a5c 8cbd e04a 99bd
000002d0: 8305 d3bc 76bb b6bc e66b 713c 12a5 edbb
000002e0: ba48 fcbc 8734 20be 9ecf a2be 097b 50be
000002f0: 5766 52be 34ef 2ebe a8ae 99bd 326d fbbd
00000300: 9686 6e3c 583e f5bc e144 e0bb 77f1 ac3a
00000310: 0f92 3cbc 7ec1 a6bb 2b6b a8bc 2eaf 23bc
00000320: 553a c83b e144 bb3c f400 b83c 5034 423c
00000330: 5e8c a23d 94ab c33d 4e9a 913d 12dd eebc
00000340: 1701 81bd f695 01be ad2c cbbd 2e5b b2bd
00000350: 97dd 18be df09 8abe 5b0c b3be e7a0 79be
00000360: 2e0d 67be 8b20 2abe a6ff 1fbe ff56 13be
00000370: 832f 763d 0f3a 123c 7dff 1cbc cddc f23b
00000380: 0e9f 2f3d 8e14 0a3d 8b51 cc3c 983b 3abd
00000390: 6633 5abc 49b2 e7bc e12e 4abd f269 9cbc
000003a0: 6d83 003d 3c74 803c ec9b 44bd aaab c4bc
000003b0: 6c50 4cbd 6f14 4dbd 69fd bfbd a030 38be
000003c0: b3f9 a4be e35d aabe 3c29 acbe 1218 61be
000003d0: cd7d 31bd e8d0 3cbd 1e8a 8fbd 9af0 a5bd
000003e0: 2e19 3a3c b4f7 ef3b 1dfa 89bd d1de 0f3d
000003f0: 4c00 7bbc 4fd9 b0bc 1f9c 1d3d e6f1 49bd

fc1.bias f4 [128]
-0.02869395 -0.013021987 -0.010262122 0.018591706 -0.03543792 -0.038123995 -0.0143573135 -0.0241141
-0.052149165 -0.035806946 0.025416257 -0.048310265 -0.007984347 0.020694332 0.019175196 -0.038667236
-0.05597811 -0.033380173 -0.0329821 0.025408687 0.036296234 0.02484134 -0.03517548 0.002220001
-0.008861607 -0.005617473 -0.04051815 -0.03444781 0.010533952 0.02501243 0.010612789 -0.014407231
-0.040559296 0.022021426 0.008287266 -0.020558763 -0.032028954 -0.048167635 -0.002920496 -0.020864181
-0.04429683 0.010898064 -0.02606355 0.02340899 -0.03555686 -0.0037522176 -0.042029765 0.0021904747
0.00060962694 -0.017347343 -0.019279681 0.007305837 -0.037052557 0.0030906205 -0.03546405 -0.0050070807
-0.014299261 0.0044336785 -0.044586968 0.0016756107 -0.0030821487 0.029667195 -0.021699967 -0.017219542
0.016042838 0.00068465126 -0.014681841 0.004707824 -0.03537494 -0.052920528 -0.03486191 -0.006582324
-0.032763876 -0.013041408 -0.0053948164 0.004175417 -0.035531178 -0.02817574 -0.009431384 0.0024378658
-0.03938763 -0.0091355 -0.028612413 0.0062152776 -0.029732676 -0.033454213 -0.042214163 -0.011040905
0.009863568 -0.021889696 -0.03468398 0.005797332 -0.030075798 0.010526703 -0.0034104935 -0.03605819
-0.031615775 0.02232132 -0.016394813 -0.077464595 -0.014577155 -0.03240462 0.0067549823 -0.009726376
-0.026023112 0.0048721046 0.027770635 -0.012665917 -0.0595386 -0.072302036 0.0069488683 -0.04224755
-0.015401662 0.008057311 -0.026072014 -0.014714835 -0.06578505 -0.019291362 -0.017669648 0.013414357
-0.034408446 -0.018077737 0.009608098 -0.047269687 -0.0009367527 -0.03521134 -0.013786363 0.00032833114
00000000: 930f ebbc 2c5a 55bc 7622 28bc a24d 983c
00000010: 5a27 11bd e827 1cbd f03a 6bbc ef8a c5bc
00000020: 5d9a 55bd 4eaa 12bd c135 d03c fce0 45bd
00000030: c7d0 02bc 2987 a93c 4d15 9d3c 8961 1ebd
00000040: 4d49 65bd a6b9 08bd 3d18 07bd e125 d03c
00000050: 5cab 143d 1180 cb3c 2a14 10bd 707d 113b
00000060: 4630 11bc c712 b8bb 5cf6 25bd 2619 0dbd
00000070: 9996 2c3c dee6 cc3c 43e1 2d3c 4e0c 6cbc
00000080: 8121 26bd 4766 b43c 50c7 073c da6a a8bc
00000090: cb30 03bd 6d4b 45bd cb65 3fbb 5ceb aabc
000000a0: 9870 35bd cb8d 323c 3a83 d5bc 36c4 bf3c
000000b0: 12a4 11bd c4e7 75bb 6727 2cbd 118e 0f3b
000000c0: 5fcf 1f3a 041c 8ebc 6cf0 9dbc cd65 ef3b
000000d0: 6cc4 17bd 028c 4a3b c042 11bd 7012 a4bb
000000e0: 7347 6abc 6448 913b d3a0 36bd 2aa0 db3a
000000f0: e0fd 49bb 9e08 f33c 21c4 b1bc ff0f 8dbc
00000100: 456c 833c 2b7a 333a 1b8c 70bc 1744 9a3b
00000110: 50e5 10bd 32c3 58bd 5dcb 0ebd 89b0 d7bb
00000120: 6a33 06bd a1ab 55bc 00c7 b0bb f0d1 883b
00000130: 2489 11bd cfd0 e6bc 1786 1abc 9ac4 1f3b
00000140: ec54 21bd 10ad 15bc 9464 eabc 87a9 cb3b
00000150: f191 f3bc 4907 09bd c2e8 2cbd e9e4 34bc
00000160: cd9a 213c 0552 b3bc ca10 0ebd 8cf7 bd3b
00000170: 8561 f6bc 3178 2c3c 9682 5fbb c1b1 13bd
00000180: 8b7f 01bd 33db b63c 6a4e 86bc c2a5 9ebd
00000190: 05d5 6ebc b5ba 04bd e658 dd3b 615b 1fbc
000001a0: 6c2e d5bc 2da6 9f3b 3e7f e33c b584 4fbc
000001b0: bfde 73bd 1713 94bd 55b3 e33b c40b 2dbd
000001c0: 4157 7cbc d002 043c fa94 d5bc 7e16 71bc
000001d0: 50ba 86bd eb08 9ebc f0bf 90bc e4c7 5b3c
000001e0: dfef 0cbd c317 94bc 496b 1d3c dc9d 41bd
000001f0: 6990 75ba c439 10bd 33e0 61bc dc23 ac39

fc2.weight f4 [64, 128]
-0.02329601 0.09628443 -0.015878486 0.0011675244 0.15953468 0.110392325 -0.02758472 -0.01138761
-0.054812565 0.31408563 -0.14963919 -0.0015184742 -0.03375014 -0.022500364 0.15677783 0.21262617
0.13941582 -0.063516945 -0.009300196 0.17848226 0.07553846 -0.052196775 -0.03408718 -0.061530348
-0.019719137 -0.015873596 0.23895079 -0.05018276 -0.09565306 0.12348117 0.10179722 0.00038007548
0.13447937 0.034186497 0.020803649 0.08323299 -0.14103138 0.018664444 -0.06788466 0.0530433
-0.07464567 0.15107754 0.1798412 0.02443573 -0.21063684 0.19217204 -0.08008573 0.14276588
0.25076416 -0.027876774 0.095252365 -0.022840487 -0.004082723 -0.021940786 -0.010177273 0.23025452
-0.06499561 -0.0066655786 -0.12710027 0.028756406 0.069141 0.034251135 0.07615901 -0.08667021
0.21772633 0.090545654 -0.031246634 0.011302657 -0.09379194 0.04816994 -0.056641255 0.00237279
0.024437882 -0.056219086 0.15022983 -0.058517274 -0.25899017 0.05679607 0.0998294 -0.11925359
0.10474817 -0.0780853 -0.090395 0.2903171 -0.06475234 0.035749473 0.019255701 0.34096986
0.035229396 0.055964757 0.14410311 0.08023038 0.05934198 0.0029115959 -0.043181036 0.05907658
-0.052770518 0.050561633 -0.024534054 -0.12182162 -0.1506615 0.017411733 0.09595795 0.110831834
0.19693418 0.20023611 0.209096 0.04652019 -0.1429936 0.018301552 -0.15554185 0.016042296
0.037728 0.020156642 -0.019717103 -0.016648654 0.03292699 0.3092432 0.18754916 0.018542524
0.027477732 0.05422352 0.072286546 -0.10844809 -0.0057533835 0.210658 -0.025763497 -0.061399907
-0.0028983748 0.047185417 0.07186339 -0.060706962 0.07516869 -0.10182689 0.047146518 -0.16730398
-0.14961536 0.056991376 -0.1840008 -0.10149693 -0.006573687 0.1387575 -0.0037186877 0.04833467
0.1394185 0.04982622 0.060087573 0.18527333 0.1252127 -0.22656457 0.014430824 -0.01853159
-0.08028863 -0.044837505 0.22500986 0.076889366 -0.29285976 -0.007733094 -0.23585942 -0.06309922
0.01417739 0.06669899 0.0143827675 0.063032106 -0.053609632 0.23606311 0.003946454 -0.058390502
0.18946508 0.09257643 -0.026483424 -0.05166303 -0.17925212 -0.054652143 -0.03917058 0.012377141
0.06377535 -0.05929415 0.18540631 -0.08926413 0.032181513 0.038246352 -0.00076079223 -0.044958565
0.03951298 0.050989356 0.06311963 0.010086163 -0.016054157 -0.16932395 -0.13203983 0.15340829
-0.06122013 0.10430051 0.0077973907 0.1013168 0.025934935 -0.27127418 0.014751854 -0.03642219
-0.10830799 -0.19893965 0.054958712 0.07297975 0.0026588102 0.04432648 -0.07848171 -0.12743159
0.12840202 0.035112403 0.015586861 0.1617863 0.027593259 0.008837756 0.06049603 0.34001517
-0.07600161 0.05385314 -0.03508653 -0.0728379 0.016674986 0.0748944 -0.15602893 -0.12314189
-0.12789729 0.10668266 -0.084625766 -0.037586473 -0.008311762 -0.12987362 -0.076651715 0.1883273
0.15541688 0.029391555 0.07917166 0.14464428 0.060145553 0.09097007 -0.031834662 0.038707152
-0.07992978 -0.010405344 0.018452764 0.014808398 -0.2635855 0.028253052 -0.011544121 -0.07331003
0.011900354 -0.07754622 0.022943655 0.0658759 -0.07867189 0.26190722 0.0529468 -0.025355516
00000000: 46d7 bebc c530 c53d 9913 82bc 9e07 993a
00000010: 0f5d 233e 5f15 e23d 5af9 e1bc 1993 3abc
00000020: 2483 60bd d5cf a03e 043b 19be 8a07 c7ba
00000030: 963d 0abd af52 b8bc 5e8a 203e adba 593e
00000040: 05c3 0e3e 2c15 82bd d95f 18bc 0ec4 363e
00000050: e8b3 9a3d 49cc 55bd 009f 0bbd 3f07 7cbd
00000060: 078a a1bc 5809 82bc 84af 743e 708c 4dbd
00000070: c0e5 c3bd b2e3 fc3d 107b d03d de44 c739
00000080: f6b4 093e 2407 0c3d 6a6c aa3c 0f76 aa3d
00000090: 886a 10be 2de6 983c 1d07 8bbd ee43 593d
000000a0: d4df 98bd 12b4 1a3e 4b28 383e 712d c83c
000000b0: 2fb1 57be bfc8 443e fd03 a4bd 3831 123e
000000c0: 2964 803e d55d e4bc ac13 c33d f91b bbbc
000000d0: 5dc8 85bb 2abd b3bc 94be 26bc d7c7 6b3e
000000e0: 6b1c 85bd ed6a dabb 9326 02be 8e92 eb3c
000000f0: cc99 8d3d eb4a 0c3d 41f9 9b3d 2780 b1bd
00000100: a7f3 5e3e 0070 b93d f1f8 ffbc c82e 393c
00000110: fd15 c0bd d84d 453d a900 68bd cf80 1b3b
00000120: f431 c83c fc45 66bd d9d5 193e cfaf 6fbd
00000130: 5c9a 84be ffa2 683d 5b73 cc3d 3a3b f4bd
00000140: 3586 d63d 30eb 9fbd 0421 b9bd 71a4 943e
00000150: e09c 84bd 0a6e 123d 22be 9d3c 9a93 ae3e
00000160: b34c 103d 4d3b 653d c48f 133e d34f a43d
00000170: 9310 733d 79d0 3e3b 99de 30bd 49fa 713d
00000180: e625 58bd b719 4f3d a4fb c8bc 9d7d f9bd
00000190: 0247 1abe 0da3 8e3c 9a85 c43d cdfb e23d
000001a0: 1da9 493e b20a 4d3e 431d 563e f48b 3e3d
000001b0: ea6c 12be 23ed 953c 5d46 1fbe 226b 833c
000001c0: ad88 1a3d 8b1f a53c c385 a1bc c262 88bc
000001d0: 74de 063d 2055 9e3e e30c 403e 7ee6 973c
000001e0: fb18 e13c 7b19 5e3d f80a 943d 081a debd
000001f0: e186 bcbb bbb6 573e f80d d3bc 787e 7bbd
00000200: a9f2 3dbb 7f45 413d 1d2d 933d dda7 78bd
00000210: 0bf2 993d 9e8a d0bd b51c 413d bc51 2bbe
00000220: c534 19be ca6f 693d b56a 3cbe 9fdd cfbd
00000230: 1568 d7bb 7216 0e3e 3ab5 73bb 93fa 453d
00000240: b9c3 0e3e 9416 4c3d 631e 763d 4bb8 3d3e
00000250: c237 003e 8b00 68be 436f 6c3c 90cf 97bc
00000260: 5e6e a4bd 88a7 37bd fc68 663e 2c78 9d3d
00000270: b7f1 95be e565 fdbb 2285 71be 2a3a 81bd
00000280: 4948 683c 7b99 883d b3a5 6b3c fa16 813d
00000290: c695 5bbd 87ba 713e 4151 813b e12a 6fbd
000002a0: 2203 423e b698 bd3d c4f3 d8bc 9d9c 53bd
000002b0: de8d 37be edda 5fbd 5571 20bd 7ec9 4a3c
000002c0: a79c 823d 6cde 72bd 27db 3d3e 1dd0 b6bd
000002d0: c3d0 033d 35a8 1c3d e76f 47ba 7926 38bd
000002e0: 5dd8 213d 37da 503d dd44 813d 6f40 253c
000002f0: 0284 83bc 4263 2dbe 7335 07be 1017 1d3e
00000300: f6c1 7abd 819b d53d 4181 ff3b 2f7f cf3d
00000310: 8075 d43c 73e4 8abe c3b1 713c 6f2f 15bd
00000320: 94d0 ddbd d6b6 4bbe 631c 613d 6876 953d
00000330: 6f3f 2e3b af8f 353d 05bb a0bd 6d7d 02be
00000340: d27b 033e 06d2 0f3d 0960 7f3c 4fab 253e
00000350: 420b e23c 3ccc 103c afca 773d 7816 ae3e
00000360: bba6 9bbd 1c95 5c3d e5b6 0fbd 092c 95bd
00000370: fb99 883c 3c62 993d 0cc6 1fbe d131 fcbd
00000380: 82f7 02be 707c da3d 4650 adbd 46f4 19bd
00000390: 0e2e 08bc 97fd 04be 93fb 9cbd dfd8 403e
000003a0: 9a25 1f3e 8fc6 f03c c024 a23d a11d 143e
000003b0: 2f5b 763d 844e ba3d 1065 02bd 648b 1e3d
000003c0: 39b2 a3bd 2d7b 2abc 402a 973c ec9e 723c
000003d0: aef4 86be f272 e73c 8e23 3dbc 9223 96bd
000003e0: b4f9 423c 8dd0 9ebd 55f4 bb3c f2e9 863d
000003f0: ba1e a1bd b418 863e bede 583d 5fb6 cfbc

fc2.bias f4 [64]
-0.13395615 0.056771792 0.04725599 0.11351304 -0.08488359 0.0077015907 0.055550408 0.060381424
0.20275922 0.146125 0.13860223 0.03727173 -0.12542845 -0.10298582 0.15988609 0.2561384
0.0085683605 -0.16827643 0.20184974 0.06902663 0.1551869 0.10315084 0.19750363 0.3069421
0.075290345 -0.076196484 0.025326166 0.12658264 0.071981736 0.12931082 0.1816482 -0.020828614
0.24518058 -0.033553984 -0.018675148 0.03487823 0.15895231 -0.1089351 0.17797156 0.20807555
0.11747363 -0.06670778 0.20821235 0.14311618 0.0479685 -0.0591008 -0.015228554 -0.09214572
0.21766989 -0.00021948713 0.057241324 0.09313777 -0.022432297 0.04818787 0.012264918 -0.019412555
-0.069034785 0.20451847 -0.05893367 -0.12864213 -0.039160646 0.059502516 0.071994476 0.20284799
00000000: cd2b 09be 8a89 683d 7f8f 413d 8679 e83d
00000010: 73d7 adbd a05d fc3b d388 633d 8352 773d
00000020: 1da0 4f3e cba1 153e beed 0d3e 3eaa 183d
00000030: 5170 00be 3bea d2bd 2eb9 233e 9324 833e
00000040: 4f62 0c3c a850 2cbe b3b1 4e3e d55d 8d3d
00000050: 51e9 1e3e bf40 d33d 643e 4a3e 8427 9d3e
00000060: d331 9a3d e70c 9cbd d278 cf3c e19e 013e
00000070: 296b 933d 0e6a 043e fc01 3a3e c5a0 aabc
00000080: 9e10 7b3e e76f 09bd a0fc 98bc 7adc 0e3d
00000090: 65c4 223e 5e19 dfbd 2d3e 363e c211 553e
000000a0: 0496 f03d 179e 88bd 9e35 553e 0c8d 123e
000000b0: 9e7a 443d ae13 72bd 2f81 79bc e5b6 bcbd
000000c0: dbe4 5e3e 2126 66b9 e175 6a3d 04bf be3d
000000d0: f0c3 b7bc a560 453d cbf2 483c 1407 9fbc
000000e0: 1c62 8dbd 4a6d 513e 6f64 71bd c3ba 03be
000000f0: ea66 20bd e9b8 733d d771 933d 62b7 4f3e

out.weight f4 [10, 64]
-0.19520606 0.009580969 -0.027625637 -0.35756913 0.13074812 -0.18324459 -0.10104082 -0.34763482
0.21422097 -0.11276292 0.022695636 -0.009311398 0.16007794 -0.17580354 -0.27014253 -0.014169698
-0.13652262 0.15098414 0.08884668 -0.19434825 0.032061838 0.13373023 -0.068510726 0.07360609
-0.22234027 0.20562981 -0.12103069 -0.12142353 0.15631585 -0.23286332 0.10289412 -0.15377496
-0.24170835 0.1352051 -0.1563655 0.13732749 0.061378386 -0.08550123 -0.119624466 0.04313567
-0.25181115 0.18741299 0.1697622 0.15094775 0.24031544 0.07742049 -0.17537801 -0.15910545
0.11955769 -0.095595784 -0.29093686 0.1627382 0.12971003 -0.4115947 -0.26687962 -0.17172158
-0.20367144 0.1588346 0.04887199 -0.066576235 -0.1423061 -0.20469798 -0.12039747 0.11919969
0.04957415 0.035087917 -0.23625502 0.10610505 0.07535435 0.109998055 -0.2766122 0.01933584
0.16152593 0.099733844 -0.33069342 -0.24977604 0.1866293 -0.13204235 -0.21674353 0.17276949
0.22806998 -0.08757541 -0.36745277 0.111073196 -0.21255584 0.03315268 0.0057583577 -0.15386944
-0.2268316 -0.20823434 0.18593192 0.07331576 -0.31295335 0.094083816 -0.13693963 -0.10170606
-0.10093773 -0.3177652 0.1921997 -0.23604873 -0.2425792 0.11091758 0.10448911 -0.3687992
0.09757064 -0.23924616 -0.19840156 -0.13476445 -0.08461694 -0.08618925 0.20613594 0.070509925
0.10600722 0.15598539 -0.112273864 -0.10360831 -0.122782156 0.151106 0.18975465 0.0516126
0.20129162 0.041541334 -0.28302145 0.109903075 0.19119237 0.1905828 -0.29723415 0.08271314
0.09173982 0.13475536 -0.18536428 0.106062196 0.09874443 0.11244675 -0.22257882 0.07734334
0.106381916 0.106792964 0.14155741 0.062031116 -0.035029884 0.15317056 -0.041412875 -0.08391564
-0.048259836 0.01734136 -0.24639344 0.09932365 -0.12593126 0.0834256 -0.06015659 -0.034324437
-0.110432744 0.18048112 -0.13487126 0.13879311 0.10721687 0.00917368 -0.24868177 0.12489764
-0.23434357 0.22579053 -0.19991274 0.12271944 -0.005075863 0.10729982 -0.23970227 0.09379683
0.10327357 -0.18603447 -0.12387179 -0.11624416 -0.17036039 0.03679982 0.055159945 0.28373662
-0.28578523 0.14066252 -0.19040906 0.122624494 0.09644495 -0.43109745 -0.3429384 0.11340557
-0.17323549 0.14042838 -0.11386022 -0.1708364 -0.052336734 -0.21204285 -0.040853996 -0.20496954
0.067368984 0.15443587 0.2602228 0.027548034 0.124136604 0.084435426 0.11423099 0.13091648
0.031445283 -0.033911027 -0.040878978 -0.19369449 0.1056779 -0.20313111 0.02953024 -0.082240105
-0.23388502 0.109209344 -0.10170947 0.005820219 0.121155344 -0.04308091 -0.25472844 0.100143224
-0.19748221 -0.114410155 -0.18151174 0.14235635 -0.1030419 0.14423996 -0.26529163 0.13512985
-0.19319077 -0.11047634 0.0823195 0.009618895 0.103437014 -0.2796581 -0.020228941 0.10256231
-0.09091045 -0.13862675 -0.017147094 -0.13686082 0.017385652 0.16602655 0.076071054 -0.059361354
-0.25420585 0.0840018 -0.1836082 0.0076652733 0.11561818 0.09797832 0.11219481 0.12023636
-0.11965511 -0.18234836 0.13171881 0.0049833637 -0.31062543 0.11913852 0.01678536 -0.09570705
00000000: 19e4 47be 7ff9 1c3c 294f e2bc 4d13 b7be
00000010: d6e2 053e 78a4 3bbe 7dee cebd 31fd b1be
00000020: be5c 5b3e 3ff0 e6bd 33ec b93c d58e 18bc
00000030: 79eb 233e d805 34be 1f50 8abe 0528 68bc
00000040: 96cc 0bbe 969b 1a3e 40f5 b53d 3a03 47be
00000050: 4653 033d 94f0 083e 5a4f 8cbd cabe 963d
00000060: 2bad 63be 9f90 523e f0de f7bd e6ac f8bd
00000070: 4311 203e b973 6ebe 27ba d23d 2f77 1dbe
00000080: 6582 77be 3573 0a3e 471e 20be 949f 0c3e
00000090: e767 7b3d 451b afbd acfd f4bd 07af 303d
000000a0: 64ed 80be 31e9 3f3e 24d6 2d3e 0c92 1a3e
000000b0: 4015 763e a28e 9e3d 4b96 33be 8aec 22be
000000c0: aada f43d b9c7 c3bd adf5 94be d8a4 263e
000000d0: b5d2 043e 8abc d2be 72a4 88be c8d7 2fbe
000000e0: 3f8f 50be 8aa5 223e ff2d 483d 1f59 88bd
000000f0: b1b8 11be 599c 51be f392 f6bd f81e f43d
00000100: 440e 4b3d 59b8 0f3d d6ec 71be 9b4d d93d
00000110: 6253 9a3d a946 e13d 1da0 8dbe 3266 9e3c
00000120: 0e67 253e 4241 cc3d a650 a9be 4ac5 7fbe
00000130: c01b 3f3e 1c36 07be 04f2 5dbe 7cea 303e
00000140: 2d8b 693e bd5a b3bd c522 bcbe 587a e33d
00000150: 3da8 59be 1bcb 073d 9bb0 bc3b f38f 1dbe
00000160: 8b46 68be 623b 55be f064 3e3e 9326 963d
00000170: 6c3b a0be 04af c03d e739 0cbe 444b d0bd
00000180: 71b8 cebd 1fb2 a2be 00d0 443e c2b6 71be
00000190: af66 78be c228 e33d 63fe d53d 40d3 bcbe
000001a0: 1ed3 c73d f2fc 74be c729 4bbe b1ff 09be
000001b0: a54b adbd fd83 b0bd 4d15 533e 8267 903d
000001c0: 501a d93d a2ba 1f3e d7ef e5bd 9830 d4bd
000001d0: 3675 fbbd 88bb 1a3e 0b4f 423e bc67 533d
000001e0: 641f 4e3e 3f27 2a3d 30e8 90be dd14 e13d
000001f0: efc7 433e 2328 433e 132f 98be 8265 a93d
00000200: 16e2 bb3d 4ffd 093e 22d0 3dbe 2337 d93d
00000210: 853a ca3d 7b4a e63d b4eb 63be 2f66 9e3d
00000220: c3de d93d 45b6 da3d 6df4 103e 5714 7e3d
00000230: 7f7b 0fbd bed8 1c3e 8ca0 29bd f7db abbd
00000240: 1bac 45bd 780f 8e3c 904e 7cbe 336a cb3d
00000250: 20f4 00be 0adb aa3d c266 76bd c897 0cbd
00000260: 902a e2bd 0bd0 383e b11b 0abe c81f 0e3e
00000270: 8594 db3d 344d 163c 6fa6 7ebe 55ca ff3d
00000280: c3f7 6fbe a235 673e edb5 4cbe 5454 fb3d
00000290: 6d53 a6bb 02c0 db3d 8374 75be 8d18 c03d
000002a0: 1881 d33d d27f 3ebe 7eb0 fdbd 6b11 eebd
000002b0: f472 2ebe 68bb 163d 65ef 613d ed45 913e
000002c0: 7152 92be d609 103e 98fa 42be 8d22 fb3d
000002d0: ee84 c53d ceb8 dcbe 9f95 afbe 2e41 e83d
000002e0: a564 31be 75cc 0f3e 8c2f e9bd bdef 2ebe
000002f0: 0b5f 56bd c321 59be 8556 27bd 89e3 51be
00000300: c0f8 893d 7024 1e3e ec3b 853e 6aac e13c
00000310: 553b fe3d 7bec ac3d f0f1 e93d f80e 063e
00000320: c5cc 003d 4ae6 0abd b770 27bd d957 46be
00000330: a86d d83d 9a01 50be 67e9 f13c 806d a8bd
00000340: 8e7f 6fbe 26a9 df3d 0e4d d0bd 89b7 be3b
00000350: 4b20 f83d 9c75 30bd c46b 82be e417 cd3d
00000360: c738 4abe df4f eabd 37de 39be ddc5 113e
00000370: a207 d3bd a4b3 133e 4ed4 87be 7b5f 0a3e
00000380: cdd3 45be 6b41 e2bd 2097 a83d 9298 1d3c
00000390: c9d6 d33d 592f 8fbe 2ab7 a5bc 300c d23d
000003a0: 422f babd 2cf4 0dbe 1078 8cbc 3e25 0cbe
000003b0: 5b6c 8e3c dd02 2a3e 24cb 9b3d e424 73bd
000003c0: 4527 82be 2309 ac3d ca03 3cbe f92c fb3b
000003d0: 39c9 ec3d dca8 c83d 64c6 e53d 7b3e f63d
000003e0: bd0d f5bd 87b9 3abe 4ce1 063e 7c4b a33b
000003f0: 4c0a 9fbe e5fe f33d 7481 893c 0f02 c4bd

out.bias f4 [10]
0.11602714 -0.110236675 -0.0044689295 -0.11051944 0.019059658 -0.1370906 0.023272574 -0.09479737
0.24096952 0.08930764
00000000: a39f ed3d c4c3 e1bd 1970 92bb 0458 e2bd
00000010: 0023 9c3c 7a61 0cbe 20a6 be3c 2025 c2bd
00000020: b7c0 763e ede6 b63d
