Exercise/best_model.pth (torch, 549346 bytes, 12 tensors)

fc1.weight f4 [110, 784]
00000000: d351 11bd 3084 8a3b 5e71 7bbc 6e0a 14bd
00000010: 0555 e63c e964 02bc 381d ff3b 5dae 9dbc
00000020: ad4e 31bc eefa eb3c d8a1 82bc c1e4 163c
00000030: 70fe e3bb 7e18 e9bc b7ab c4bc 7e25 2f3b
00000040: dfb1 ff3a 49ef a23c 2479 fb3c c57f f83c
00000050: ae8c 65bc 76a7 06bd 51a9 003d 1449 05bd
00000060: b5ae bd3b 3dc6 563c 05d1 3dbb 9548 0b3c
00000070: 4d20 273c 306d 06bc 932d d33c be7d 13bd
00000080: e8a6 d4bc e851 d5bc faed 943b e387 ffbc
00000090: c844 ca3c 743e dcbc 7b9e fa3c b8e6 143d
000000a0: 5b5a 0a3d 8f53 bbbb 1475 34bd 27c9 28bc
000000b0: 9e49 18bd bbd3 f5bc d472 d53b 2649 0d3d
000000c0: fe85 9f3c 63fb 773c 83d5 01bd 702f e33c
000000d0: ddae 86bb e1d2 46bc c64a 193c 8697 bbbc
000000e0: 5a0b d7b9 30fc 943c 13ef 94bc 647e a53b
000000f0: c22f 8dbc 91cc 473b 8f8d af3c 2dd2 ac3b
00000100: 3a1b debb 13c5 b73c 71a1 f7bc ef38 4bbc
00000110: e42e ffbc 060c 25bd 2fa2 28bd 9a2a 12bd
00000120: 887f ab3c b546 a5bc 2194 c83c 0cbf 383d
00000130: 13a8 01bc 7f62 9c3c 32df a5bc 94ab 25bc
00000140: f1da 4abc 9be4 023c a7ef 883c a122 4b3c
00000150: a688 aabc 0960 9b3c 8b6f fe3a fdbd ca3c
00000160: 9195 96bc 9d72 cabc 2575 b13c b27b 003d
00000170: 4bd0 4cbb e238 ccbc aaf5 153c 19d6 c03c
00000180: 6547 8a3c 9459 a33c 2942 1b3d c572 a23d
00000190: 30d7 653c c04a ea3c ad4e 47bd 3dcd ee3c
000001a0: 7eef 803d fad2 233d 65de 433c 3f6c 093d
000001b0: 30e2 17bc 76f1 323c 6889 bf3c 66ee cebc
000001c0: 00a6 31bb f148 023d b7f5 d1bc 44f6 d4bc
000001d0: 3915 c33c f27b cbba e4ee 27bd 1ddf 21bd
000001e0: 506a f1bc afca 153c 027e 123c c695 353b
000001f0: bb98 a73c c965 a6bc 4569 103d 0162 023d
00000200: 33ad fc3c ffba 113d 5357 ef3b 008e e6bc
00000210: 6313 ab3c 71bb 78bc f026 00bd f69d d13c
00000220: a8ff 6fbd 9ab1 14bb 844c 13bd 73fc 6fbc
00000230: 99c5 36bc 2a81 fbbc 3ea0 3abb e8a5 3d3c
00000240: 0b99 26bd ee6b 1ebd 9be6 1ebd f879 c93b
00000250: ece8 90bd 1077 38bc 1c10 29bd b61f 833a
00000260: 2f0c 64bc d42e 35ba ceb1 bb3d 6211 0d3d
00000270: f723 dbbb 7447 0a3d d972 3d3d 73fd 413d
00000280: fecf 823d 6d06 1fbb ae55 a7bc 5584 95bc
00000290: c6a6 11bd 1061 7e3c 325d 353d 000a 263c
000002a0: 1975 92bc 20cc dc3b 42bf 53bc 4ea7 3ebd
000002b0: 6abc 31bc ddd9 0cbc 537b 18bd 325e 94b8
000002c0: 761d 53bd 61dd a3bd 3433 ffbd 528c c2bd
000002d0: 1507 d7bc 46d1 6ebc 8fcb f4bb bae4 d93b
000002e0: 3d59 a13b 5ef3 5e3a cea7 dcbc 5be1 123c
000002f0: 63bd 8ebb 067a 05bd 2cd4 323d d1f6 c43c
00000300: 611a 0e3d 9d2d 6fba 5b9f 813c 9c3f 8b3c
00000310: 4319 a93c 3a4b fb3c 8976 dd3c 043e 3e3c
00000320: 4839 9a3c 84cb 60bd be40 85bd 0e20 86bd
00000330: e549 f4bd df7d 31bd 0709 05bd 54ae 083c
00000340: ac96 8fbb 541e c3bc 3b0b 08bd 963f 1f3d
00000350: 6a2d 2fbb e597 afbc b52e 1abc 13b5 bebc
00000360: b6a7 b0bc 0faf a03c 5724 8c3a f81e db3c
00000370: d41c b43d 64f0 433d 8fd6 d0bb fceb 013d
00000380: a199 c6bc e1d6 aabc 3d2a b3bc af17 53bc
00000390: 164d f1bc d4ac 6dbc 80aa 6dbb db42 95bd
000003a0: 5d0e 9dbd 15cb c3bc 2f94 0fbd f257 193d
000003b0: 5ec3 9a3d cdd4 193d 8f4e 86bd 9da6 06bc
000003c0: 8dc1 aabc 702a 03bd 32b1 5d3c a191 963c
000003d0: 905e a13c 74a2 903c a802 84bc d9bf 243c
000003e0: 8331 0b3d d4ae 513d 6977 1c3d 9dab e1bb
000003f0: b2a3 9f3a a7ef d7bb d91b 18bd 01cc 873c
-0.035478424 0.0042271838 -0.015346853 -0.03614276 0.028116712 -0.007958629 0.0077854656 -0.019248182
-0.01082198 0.028806176 -0.015946314 0.009209813 -0.0069578215 -0.028454062 -0.024007661 0.0026725228
0.0019507966 0.01988949 0.030697413 0.030334363 -0.014010591 -0.032874547 0.031411473 -0.032540396
0.005788649 0.013108787 -0.0028963697 0.008501192 0.010200572 -0.008204743 0.025778567 -0.03600859
-0.025958493 -0.026040033 0.0045449706 -0.031192726 0.024691 -0.026885249 0.030593148 0.036352843
0.033777576 -0.005716748 -0.044056967 -0.010301865 -0.03717958 -0.030008188 0.0065139327 0.034493588
0.019473072 0.015135619 -0.03169776 0.02773258 -0.004110201 -0.012135238 0.009356206 -0.0228994
-0.00041016453 0.018186659 -0.018180406 0.0050504673 -0.017234687 0.0030486921 0.021429805 0.0052740783
-0.006778148 0.02243284 -0.030228348 -0.012403711 -0.031150289 -0.04029467 -0.041170295 -0.03568516
0.020934835 -0.020175317 0.024484696 0.04510407 -0.007913607 0.019089935 -0.02024803 -0.010111708
-0.012381301 0.007989074 0.016715838 0.012398393 -0.020817112 0.018966692 0.0019411905 0.024748797
-0.018381866 -0.024712855 0.021662304 0.031367965 -0.0031252082 -0.024929468 0.009152809 0.02353959
0.016879747 0.019940175 0.037904892 0.07932047 0.0140283555 0.028600097 -0.048659015 0.0291506
0.062956795 0.039996125 0.011954878 0.033550497 -0.009270236 0.010921827 0.02338095 -0.025260162
-0.0027107 0.031807844 -0.025629861 -0.025996335 0.02381383 -0.001552461 -0.04099931 -0.039519418
-0.029469639 0.009142562 0.008941175 0.002770768 0.02045857 -0.020312207 0.035256643 0.031831745
0.030844307 0.035578724 0.007304111 -0.028143883 0.020883268 -0.015181408 -0.031287134 0.025588017
-0.058593422 -0.0022688867 -0.035961643 -0.014647591 -0.011155509 -0.030701239 -0.002847686 0.0115752
-0.040673297 -0.03867715 -0.03879414 0.006148573 -0.07075676 -0.011258855 -0.04127513 0.0010003957
-0.01391892 -0.000691158 0.09164773 0.034440406 -0.006687637 0.03375955 0.046252105 0.04736085
0.063873276 -0.0024265305 -0.020426597 -0.018251577 -0.03555944 0.015526071 0.04427833 0.01013422
-0.017878102 0.006738201 -0.012924017 -0.046546273 -0.010848144 -0.0085968645 -0.037226986 -7.074735e-05
-0.051541768 -0.08001209 -0.12460938 -0.0949942 -0.026248494 -0.014576262 -0.007470555 0.006649581
0.004923968 0.00085048925 -0.026935484 0.008964862 -0.0043560727 -0.032587074 0.043659374 0.024043472
0.034693126 -0.00091239234 0.015823057 0.016998105 0.020641929 0.03067552 0.027034061 0.011611465
0.018826142 -0.054881588 -0.06506489 -0.06549083 -0.11928157 -0.04333293 -0.032479312 0.008342344
-0.004381975 -0.023818173 -0.033213835 0.038879 -0.002672995 -0.021434734 -0.00941055 -0.023279702
-0.021564346 0.019614724 0.0010691982 0.026748165 0.08794561 0.047836676 -0.0063732336 0.031719193
-0.024243178 -0.020854415 -0.021870727 -0.012884065 -0.029455703 -0.0145065375 -0.0036264956 -0.07288142
-0.07668755 -0.023900548 -0.03505343 0.037437387 0.075567946 0.03755646 -0.065579526 -0.008218435
-0.020844245 -0.032022893 0.013531016 0.018379988 0.019698411 0.017655589 -0.016114548 0.010055506
0.033982765 0.05119212 0.038199816 -0.006886913 0.0012179522 -0.006589848 -0.037135933 0.016576769

fc1.bias f4 [110]
00000000: 8e35 00bd 5697 a83b c7b7 c83c f8fd 02bd
00000010: a29b 1c3c dfe3 c6bc fe35 aebb 5130 9b39
00000020: 7bf0 e43c 1504 18bd 7773 103d 0167 2c3d
00000030: 434d 613c df92 fc3c 8995 ad3c 912c fc3c
00000040: 640a 03bd c99b 18bd 7e8f 2b3c cdba ea3b
00000050: 7963 41bc ac26 71bb 6790 9bbc 1420 2f3b
00000060: 1854 dfbc 6ddc b3bc 2886 423b 24fe f63c
00000070: 042a ef3c 6315 51ba be8e a1bc 7078 16bd
00000080: 4b86 333b 6319 94bb edd3 693c 41ce 32bd
00000090: 53d5 e0bc 0533 dbbb 0d4d cb3b 0065 dfbc
000000a0: e9bd a8bc 9b8e 073d a591 c43c fbce f1ba
000000b0: 4b2b 663c 4b5b 1bbc a0b9 bc3b c9f6 8bbb
000000c0: 0aed b43c 77c1 703c ad9e cc3c 5502 0ebb
000000d0: 55cd a6bb 477d 7e3c 48b4 b5bc 7840 f2bb
000000e0: 9545 643c c550 ccbc 27da 223d d246 28bd
000000f0: ff93 9cbb b284 9abc 9f28 e93c 8cd3 e63c
00000100: 37a1 1abc a716 42bd 5b23 973c 43e5 6abd
00000110: 2da0 0abd ec21 c6bc ce0c 1f3d 3ac0 bf3c
00000120: bb48 9b3c 2727 5abd 8b32 863c 742a 34bc
00000130: 0973 39bd 5f78 183d 3a50 c33c 9577 32bc
00000140: e8dc 6d3b 06f9 19bd 225b f03c 0c81 863b
00000150: 7948 893a bc42 223d a6dd 69bc 290a 85bc
00000160: 6686 7f39 0fdb 03bd 59c8 953c 009a a03c
00000170: 77fb 2e3d 7f91 543c 3355 02bc 320a fdbb
00000180: 5612 bf3b 6f0f f63c 57fd 7abc 0845 7bbc
00000190: 239f 2c39 8071 a5bb 582a 06bc 9136 bdbc
000001a0: 4563 a53b 6786 c1bc 8a95 0a3c 2bb4 7e3b
000001b0: 8cbb 03bb 5f6f f83b
-0.031301074 0.005144994 0.024501694 -0.031980485 0.00955859 -0.02427858 -0.005316495 0.00029599902
0.027946701 -0.037113268 0.035266366 0.04209042 0.013751331 0.030831752 0.021189468 0.03078297
-0.03199233 -0.037257943 0.010471223 0.0071633817 -0.011803501 -0.0036796732 -0.018989755 0.0026722
-0.027261779 -0.021955693 0.0029682014 0.03015048 0.02919484 -0.0007975904 -0.019721385 -0.036735952
0.0027393277 -0.004519628 0.014271718 -0.04365373 -0.02744547 -0.0066894316 0.0062042535 -0.02726984
-0.020598369 0.033094984 0.02399523 -0.0018448526 0.014048408 -0.009482215 0.005759433 -0.0042713624
0.022085685 0.014694563 0.024978006 -0.002166887 -0.0050903955 0.015532798 -0.022180691 -0.007392939
0.013932605 -0.024940858 0.039758828 -0.041083165 -0.0047783847 -0.018862102 0.028461752 0.028177045
-0.009437851 -0.047384884 0.018449476 -0.057347547 -0.03384416 -0.024186097 0.03883057 0.02340709
0.018955579 -0.053259995 0.016381523 -0.01099645 -0.04527572 0.03722417 0.023841966 -0.010892768
0.0036295 -0.037591003 0.02934033 0.004104739 0.0010473869 0.039614424 -0.0142740365 -0.016240196
0.00024368762 -0.032191332 0.01828401 0.019604683 0.042720284 0.012974142 -0.007954883 -0.0077221626
0.0058310432 0.030036656 -0.01531919 -0.015336283 0.00016462481 -0.0050489306 -0.0081888065 -0.023097308
0.0050472342 -0.023623658 0.008458504 0.0038864713 -0.00201008 0.007581636

blocks.0.fc1.weight f4 [110, 110]
00000000: 179c d1bd a827 57bd 5a13 223b 26f5 64be
00000010: f875 0c3c 3e14 eb3c 5017 cf3c da2c 46be
00000020: ce44 46bd 7ec7 573d 938c de3d d387 8abd
00000030: 88fd 843d 8632 603d a4c2 9c3d 0de6 08bd
00000040: 0642 9f3d 3d77 3abe 2d76 063e 70dd ca3d
00000050: 0741 b4bd f3d7 babc 264b 8b3d e295 4dbc
00000060: f80c 88bd b5f7 8c3c 27a3 edbd 6e32 123e
00000070: c20a 7dbb 1d91 9a3d bfee 0f3d 8586 6ebd
00000080: d065 ec3d bf1b bf3c f0f7 c8bc 8256 993c
00000090: 0e76 71bc a8b5 513d 6cae a2bd dfa0 873c
000000a0: 4022 19bd 5fc4 ac3c 5baf 093d ccdc 9e3d
000000b0: f6f3 26bd 16f0 4a3b 48b6 65bd 2fad 83bd
000000c0: 21ba 70bd 092a fa3d a0ff c9bc 1c26 88bc
000000d0: dd58 533b f060 df3c b07e 1ebe 9312 163d
000000e0: e9d7 a7bd 9923 d3bd d665 8bbd 9cd1 283e
000000f0: 6804 d4bd a1ef 913d ef89 5bba 39e9 22bd
00000100: c400 e2bd 5d1d 1abd 7cfc 253c 520b 9fbc
00000110: b533 83bc caf2 2f3d 5022 a9bd cb1b 2abe
00000120: 6d3f a1bd 3fe1 bb3d 9ead 073c 7626 81bd
00000130: 9d54 023e 945e 8dbe 519d bbbc 3402 6cbd
00000140: cac2 bfbd f564 4cbd 4d3b 623c ee37 d33d
00000150: 5e37 1dbe 1902 a23d c474 e1bc f77e f53d
00000160: 2470 f7bc bbc4 98bb befa 413d ce90 a33c
00000170: f046 da3d 7eb5 2a3e 784b a3bd 4d34 2fbe
00000180: cb19 a43c 28b4 aabd a4c4 9cbd 9475 1bbd
00000190: af26 ca3c 2392 323d deb3 5c3c 7422 333e
000001a0: 7165 27bc 5b3f 31bc 2c0c dbbd 5d11 f23d
000001b0: 806f 813e 89be b2bd 23c9 323d 4168 1fbe
000001c0: ea81 7c3d a6df bdbd 9bba 95bd 0502 a2bd
000001d0: c321 5d3a d89a 053d 3579 88bc 843e 9bbd
000001e0: 1353 70bd 91b0 243d 2df1 b5bd 6244 9cbd
000001f0: e972 76bd 9e82 273d aefa d3bd 9b39 b9bd
00000200: 7b3a d9bd 9f2c aebd 3f37 8a3c 5c3e f73d
00000210: b7be b0bd 44a7 b8bd 1709 fc3c 5548 62be
00000220: 6991 d63d 5edd 923d 5dae a5bb 542e 3cbd
00000230: 35a3 fc3b 8d16 8a3d 05b7 81bd d39d a43d
00000240: aac1 a1bd fb1a 25be 70df 42bd a783 89bd
00000250: 1709 0cbd ec88 27bd c24a e03c 91fa 75bd
00000260: 61e3 96bb 52f7 553a c9d0 a8bb b0bf 14bb
00000270: 1d17 b6bc ad10 5c3d 6058 4ebc ecfe 883d
00000280: 0466 4c3d 5835 e73d e656 ca3d 3969 c4bd
00000290: 05dc 39bd 3c5c 35bd 493a 1c3e d299 3a3e
000002a0: 46f0 1dbe 3cc8 eabd 0add d03d a010 42bd
000002b0: d6a0 cd3c 53ed 5e3c a1a3 21bc 83dd 893d
000002c0: 12c6 213d 91b2 993d d76e 1fbc 4931 7cbc
000002d0: c20f c53d da99 c2bd 9b24 a2bc 91d4 f83b
000002e0: 5903 98bd 9640 de3d dcc3 4d3d 212a 61bc
000002f0: ff03 34be 3524 043d c662 e53c e543 80bd
00000300: 9b1d 80bd 27a6 0c3d ff3c 2f3d 9843 693d
00000310: e20c 013d 2c07 213b 6c8d 063c cbb9 bcbd
00000320: 5811 6f3d 4d7e a43d b2e1 6f3d 4ef2 8cbd
00000330: 7625 b13c 8f9d 0b3d 3bd3 86bd 47cb 32bd
00000340: 3ae6 0f3d 7d4f 94bc 1645 92bc 6bc4 59bd
00000350: 30ce c6bd 0799 2a3d 40ea a8bd 82d2 9ebd
00000360: b3ba 1b3c c2a6 683d 44cc 30be e87c 8e3b
00000370: 4fb9 35bd 166e 03be fb40 d53c b48e 4c3d
00000380: da1c 7d3b 1962 1e3e a328 a13d f6aa d93c
00000390: 86b1 5b3d 9f66 123d b090 86bd 0caf d4bc
000003a0: b0cc 223d eca1 b83a e9f0 003e 97a9 55be
000003b0: 42a3 cabd 2b02 953c 57a4 6a3c 7ff3 8fbd
000003c0: 8046 593d ee54 d23c 7c0a 25bd e1b0 063c
000003d0: 48d6 95bd ab0e 223e 4149 e93c 4a0e 9cbc
000003e0: d078 aabd 515c 86bb 384e c7bd ff3a c73d
000003f0: 2548 5c3d 217f 013e a660 b1bd 5b1c 653c
-0.1023485 -0.052528054 0.0024730773 -0.22359142 0.008573048 0.028696176 0.025279671 -0.19353047
-0.04840546 0.052680485 0.10866656 -0.06764188 0.0649367 0.054735683 0.07654312 -0.03342252
0.07776265 -0.18209548 0.13131018 0.09905517 -0.088014655 -0.02280805 0.06801443 -0.012547942
-0.066430986 0.01720796 -0.116033845 0.1427705 -0.0038611148 0.075472094 0.035139795 -0.058233757
0.11542857 0.02332866 -0.024532288 0.018718008 -0.014737619 0.05119863 -0.079434246 0.016556202
-0.03738618 0.02108973 0.033614498 0.077569574 -0.040760003 0.0030965856 -0.05608204 -0.064295165
-0.058771256 0.12215049 -0.024658024 -0.016619734 0.0032249012 0.027267903 -0.15478015 0.036638808
-0.081954785 -0.10309524 -0.06806533 0.1648621 -0.10352403 0.07125784 -0.0008374741 -0.0397732
-0.11035302 -0.03762566 0.010130998 -0.019414578 -0.016015867 0.04295615 -0.08258498 -0.16612165
-0.07873426 0.09173822 0.00828114 -0.06306164 0.1272759 -0.2761122 -0.022902163 -0.05761929
-0.09363325 -0.049900968 0.013808084 0.10313402 -0.15353152 0.07910556 -0.027521499 0.11987107
-0.03020484 -0.004662124 0.047358267 0.01996651 0.106580615 0.16670796 -0.07973379 -0.17109795
0.02003183 -0.08335143 -0.07654694 -0.037953928 0.024676649 0.043596398 0.013470618 0.17493612
-0.010217057 -0.010818328 -0.10695681 0.11819718 0.2528038 -0.08727748 0.04364885 -0.15567113
0.061647333 -0.09271173 -0.07310983 -0.079105414 0.0008435512 0.032618374 -0.016659359 -0.07580283
-0.058672976 0.04020745 -0.08883891 -0.076302305 -0.06016818 0.04089605 -0.10350548 -0.090441905
-0.106068574 -0.085046045 0.016872047 0.12072441 -0.08630126 -0.090162784 0.030766053 -0.22097905
0.104769535 0.07171129 -0.005056186 -0.04594262 0.0077098855 0.067425825 -0.06333736 0.08037915
-0.078982666 -0.16123573 -0.047576368 -0.06714564 -0.034188356 -0.040902063 0.027379397 -0.060053412
-0.0046047424 0.0008162159 -0.0051518423 -0.0022697262 -0.022227818 0.05372684 -0.012594312 0.066892475
0.049901977 0.112894714 0.09879856 -0.09590382 -0.045375843 -0.044277415 0.15256609 0.1822274
-0.15423688 -0.11463973 0.1019841 -0.047379136 0.025101107 0.013606387 -0.009865672 0.06731703
0.039495535 0.07504762 -0.009731016 -0.01539261 0.09622146 -0.09502001 -0.019792845 0.0075936993
-0.074225135 0.108521625 0.050235614 -0.0137429545 -0.1757965 0.032261092 0.0280012 -0.0626295
-0.06255647 0.034338143 0.04278278 0.056949228 0.031506427 0.0024570925 0.008212429 -0.09215125
0.05836615 0.080319025 0.05856485 -0.068821535 0.021624308 0.034085806 -0.06583258 -0.04365089
0.03513167 -0.01810431 -0.017855208 -0.053165834 -0.09707296 0.041649844 -0.08247805 -0.07754995
0.009504962 0.056799658 -0.17265421 0.004348386 -0.044366177 -0.12834963 0.026031962 0.04994078
0.0038621933 0.15467109 0.07869079 0.026570778 0.053636096 0.0357424 -0.06570566 -0.025962375
0.039745986 0.0014086342 0.125919 -0.20865475 -0.0989442 0.01818951 0.014321408 -0.07028865
0.05304575 0.025675263 -0.0402932 0.008220882 -0.073162615 0.15825908 0.028477313 -0.019049782
-0.083238244 -0.0041003604 -0.09731716 0.097280495 0.05377974 0.12646152 -0.08661012 0.013983811

blocks.0.fc1.bias f4 [110]
00000000: 9b1d a7bd 1e75 c6bb c437 613d ed0a b73d
00000010: fccd e83c 6327 c2bc aefd 133d b902 593c
00000020: b159 503d d4ff 893c 9cd9 febd c1a9 cb3d
00000030: 8d98 b8bc 1349 bbbd 20c0 fc3c 1a47 883d
00000040: aff7 84bc 6984 e63c cc45 8c3c 1790 17bd
00000050: 314b bdbd 0a63 97bd c6d3 903c c877 8b3d
00000060: 18ef a23c 704c a4bb c561 873c fe0b 8b3c
00000070: 0fd5 d3ba 3c71 e4bd 4529 80bd 6022 953c
00000080: 7fec 9fbd 98e8 07bd deb8 4c3d 0c28 98bd
00000090: 2800 a1bd d19c 353d 7847 a8bc c233 9d3b
000000a0: cc1e a23d cc8f 5c3c 047d a43d ff43 c93d
000000b0: ffa5 8e3d 8d54 7cbd 6f86 18bd 7f5c bcbc
000000c0: 8304 5cbd 2d43 cebd cbba db3c 73cd 86b8
000000d0: 4498 5d3d a7ba adbd 3721 01bd c1ab f1bc
000000e0: 248b 77bd 0640 123d 2157 0abd a0e9 94bd
000000f0: 345f 44bc 828c ccbc 1e7f 65bb 5a22 5fbd
00000100: 61f9 a2bb c608 6cbd 0f53 7e3d 817f 0fbd
00000110: f49c dcbd 760b 44bd d9da 7c3d 3635 c3bd
00000120: 2402 28bd 4569 93bd a596 9bbd 95c2 953c
00000130: e1ff 8a3c f5c2 99bd 418e b4bd ba34 073d
00000140: 8d67 eabd af16 963d d6dc 8ebd 2fdd c2bd
00000150: 7892 d6bc 3a6f 15bd 77cf a83c 8cb6 3a3d
00000160: b225 81bd a43a 6a3d 4e6c bf3c 9297 6abd
00000170: 3f78 0f38 0fd8 873b dd98 a8bd 2c6e e0bd
00000180: e7a5 713d 9168 a53d c58f f23c 39c9 cbbc
00000190: 9b2a 563d 4306 1abd 19f2 fcbd 9c0d b53d
000001a0: 6da3 dbbb cb44 943d 2c20 99bd 7e43 87bd
000001b0: bcf9 843d 3b52 7d3c
-0.08159944 -0.006056442 0.054984823 0.08937631 0.028418534 -0.023700422 0.0361306 0.013245278
0.050866786 0.016845621 -0.124438494 0.09944487 -0.02253368 -0.09144797 0.030853331 0.066541865
-0.016231386 0.02813931 0.017123125 -0.03700265 -0.09242857 -0.07391937 0.017679106 0.06809956
0.0198894 -0.005013995 0.016526112 0.016973492 -0.0016161519 -0.1115441 -0.062578715 0.018204868
-0.0780878 -0.033180803 0.04998099 -0.07429513 -0.07861358 0.044339005 -0.020541891 0.00479743
0.0791603 0.013462018 0.08031657 0.09827422 0.06965255 -0.06160407 -0.03723758 -0.022993324
-0.05371524 -0.100714065 0.026822468 -6.427886e-05 0.05410029 -0.08482867 -0.031525817 -0.029500844
-0.06043543 0.03570559 -0.0337745 -0.07271123 -0.011985589 -0.024969343 -0.0035018395 -0.05447612
-0.004973576 -0.057625555 0.06209093 -0.035033707 -0.10772124 -0.047862493 0.061732147 -0.095316336
-0.041017666 -0.07197813 -0.075970925 0.01828126 0.016967716 -0.07507888 -0.08816195 0.03300927
-0.11445532 0.07328545 -0.06975715 -0.09514844 -0.026192889 -0.036483027 0.02060674 0.045584247
-0.06306018 0.05718483 0.023367073 -0.057273455 3.4205845e-05 0.0041456292 -0.08232281 -0.109585136
0.058996107 0.08076585 0.02960957 -0.024876224 0.052286725 -0.037603628 -0.12350864 0.088404864
-0.0067028315 0.07239684 -0.074768394 -0.0660467 0.064929456 0.0154615

blocks.0.fc2.weight f4 [110, 110]
00000000: a797 2dbe d48d 843d 2768 18bd 2ebd aebd
00000010: 9eca cfbb 5626 4b3d 3470 24bd 5a48 64bd
00000020: 878a c6bd 0c33 b0bc 5aa3 a4bd 40a4 d03c
00000030: 9ac2 c13d f8df b13c 1b8a 75bd 5fa4 0d3d
00000040: d82b aa3d 0deb 7a3b bc19 983d f501 a9bd
00000050: 6466 393b ae31 813c d8db 03bd 1a17 88bd
00000060: 191d b83d f6a3 143d d9b2 833c 972a adbd
00000070: 142b 4c3d 340e 95bd 53dd 41bc a4ed 1e3d
00000080: ebbc a93c 26f0 debd 7c10 50bd f9a8 fe3c
00000090: bf4e 763d 66f7 963d 58ad a4bc 864e be3b
000000a0: eee5 d4bd 280d 0bbe 4acd 9dbd f136 1e3d
000000b0: 078a aebc 1123 473d 60b4 1d3b 0923 96bd
000000c0: bb55 173d 8dec 04be 63b3 afbd c849 503d
000000d0: 15f4 923d 97ce f43c 1817 71bc 3148 663c
000000e0: 8796 463a 4a18 6dbd c43f 4b3d 9c77 883d
000000f0: f2a3 98bd ad34 25be b135 c4bd de13 af3b
00000100: 762c ddbd 1b30 093d 0a2a 85bd 80ae 623d
00000110: e3f5 8f3d e3f1 0839 3218 493b 82db a3bc
00000120: 4d3e e6bc a888 6ebe 8076 2e3d ec1b 36be
00000130: acd9 833c c092 cabd f374 a5bd 837f a33d
00000140: 0af4 a2bd 1743 4d3d 7a28 923d 98a4 03be
00000150: c6e1 e93c da72 10be c208 d8bd 7868 a1bd
00000160: 7d23 a3bc 97db 19be 0cf0 07be 624c aabd
00000170: 1f41 fe3a b8cb 473d 273f 37bd cc7b 41be
00000180: 68af 82bd b4cd 023e f8a1 1ebc 9f4e f4bd
00000190: 2702 be3b 9d58 fa3c 0f63 243c 8932 e3bc
000001a0: a4e4 62bc e127 46bd bfb1 f3bd c778 9bbd
000001b0: b311 353d 9132 a6bd 7c27 413d 921a 283d
000001c0: 75fc 083d 539d 9abd 378d 9e3c f5ad 63bd
000001d0: 6318 babb bdbf 95bd b72a d33c e44f 613d
000001e0: b0a2 543d 69a8 053d 4a72 623d def1 003d
000001f0: 48b5 8fbd 0be4 bb3d 0257 083d b0ea 173d
00000200: a255 d13d 74cb 67bd 861a 24be f961 a43d
00000210: 93ef 8dbd 4731 8cbc 3be8 a53d d91d 503d
00000220: 1c34 0a3e 266e 663d 22ad 11be 9899 bd3d
00000230: a489 e93d 092f 51bd aec7 a53c 9bd0 1abe
00000240: 678b 153c 45fb b9ba 68cc ce3c 3e11 68bc
00000250: 1c1d 43bd 85d1 33bd 1a66 9abc 17b3 7ebd
00000260: 38d8 a4bc e2e4 04bd 7dfe cd3c 6ba7 05be
00000270: fce5 2d3d 611e 083e 63b8 813d 07cd cd3c
00000280: 7d34 1dbe e06f babc 27ee 47bd 1ea3 933c
00000290: bd13 3bbb ba58 d1bd c79e efbd 361a e73c
000002a0: b1c2 58bd 46ec 7abd 3d8a fabb 658e 9f3d
000002b0: 787e e0bb f759 233d cac0 1ebd a1e8 aebd
000002c0: 8d32 03bd 066b fabd 255c 7c3c 9a79 b03c
000002d0: a3b7 c13c 2992 65bd 27f2 94bd 1305 b63d
000002e0: 4ced ddbd 8da7 943c e1e4 ab3c 6981 d63d
000002f0: 553c 4a3d 581e c23d b80b 98bd 3720 a4bc
00000300: 8951 b53d 1ce5 e93c af61 0bbe 9f9a 443d
00000310: 8f0e 843d c286 913d 5093 c6bd 17c9 11bd
00000320: 1ceb 40bc 4c10 343b 4b13 51bd f27a 023e
00000330: dc5d 93bc 1cfd 8fbc 3d12 bc3d 9b54 7d3d
00000340: 7254 423c 8df4 ab3b c3df f43b 8500 0b3d
00000350: b0f2 cabd d218 a2bd b114 85be aa07 e53d
00000360: ef7d 02be 315e c43b b147 c9bc ff37 533d
00000370: 40ab 393d 4d57 ee3d 6c84 8ebd dcb8 3fbe
00000380: 151e 053c 48dc 893d 0e96 023e 26c6 babc
00000390: ef9f 313c 2b31 8e3c 1d55 adbb 0697 143e
000003a0: 5a42 f9bc 3e5e 25bd 9d4f f9bd 50c7 39bc
000003b0: b8e2 1f3d c171 503d 4006 4ebb da2e 623c
000003c0: f43f f73c 2895 97bc 1574 b0bd 0371 1abe
000003d0: 9dd8 413d d420 8dbc 73e5 123c 75f5 4bbd
000003e0: 9626 6bbd ab81 9a3c 286c 8abc 8bcb b8bc
000003f0: 6aea 863d f953 0e3c 4ff7 ac3d af42 4a3d
-0.16952382 0.06472364 -0.037208702 -0.08532177 -0.0063412925 0.049597107 -0.040146068 -0.055733062
-0.09694391 -0.021508716 -0.08038969 0.025468946 0.094609454 0.021713242 -0.05994616 0.034580585
0.08309144 0.0038287074 0.074267834 -0.082523264 0.002828979 0.01577076 -0.03219208 -0.06645031
0.08989925 0.036289178 0.016076492 -0.08455389 0.04984577 -0.072781 -0.011832553 0.03880085
0.020719966 -0.108856484 -0.05079697 0.031086432 0.060133692 0.07371406 -0.020102188 0.0058077006
-0.10395418 -0.13579237 -0.077051714 0.038626615 -0.021306051 0.048617426 0.002406381 -0.07330901
0.036946993 -0.12980862 -0.08579137 0.050851613 0.07175461 0.029883666 -0.014714979 0.014055298
0.0007575531 -0.057884492 0.04962136 0.06663439 -0.07453145 -0.16133375 -0.09580553 0.0053429445
-0.10799496 0.033493143 -0.06502159 0.055342197 0.07029321 0.0001306008 0.0030684588 -0.02000213
-0.02810588 -0.23294318 0.04259348 -0.17784089 0.016095005 -0.098912716 -0.08078947 0.07983305
-0.07956703 0.05011281 0.071366265 -0.12855756 0.02855004 -0.14106312 -0.105485454 -0.07881254
-0.019914383 -0.15025173 -0.13275164 -0.0831535 0.001939807 0.048778266 -0.04473796 -0.18894881
-0.06381112 0.12773782 -0.009682171 -0.11929058 0.0057985964 0.030559832 0.010033383 -0.027734058
-0.0138484575 -0.048377875 -0.11899137 -0.07591396 0.044206332 -0.081151135 0.047156796 0.041040964
0.033443887 -0.075495385 0.019354446 -0.05558582 -0.0056791767 -0.07311962 0.025777204 0.05500783
0.051912963 0.03263131 0.055284776 0.031480663 -0.070169985 0.09174355 0.033286102 0.03708905
0.10221411 -0.056590512 -0.16025743 0.08026499 -0.06930461 -0.017113341 0.08100935 0.050809715
0.1349644 0.05625739 -0.14226201 0.09257811 0.11403206 -0.051070247 0.020236816 -0.15118639
0.009127474 -0.0014189264 0.025243953 -0.014164267 -0.047635183 -0.043900985 -0.018847514 -0.062182512
-0.020122632 -0.032444842 0.025145764 -0.13052146 0.04245566 0.13292839 0.06333997 0.025122179
-0.15352054 -0.022758424 -0.048811104 0.018022116 -0.00285457 -0.102220014 -0.11700206 0.02821074
-0.052920047 -0.061260484 -0.007645874 0.077908315 -0.0068510137 0.03988072 -0.038758077 -0.08540464
-0.03203063 -0.12227444 0.015402828 0.02154236 0.023647135 -0.056047592 -0.072727494 0.088876866
-0.108362764 0.0181463 0.020983161 0.10473902 0.049373943 0.09478444 -0.0742411 -0.020034892
0.08853442 0.02855163 -0.13611482 0.04799902 0.06448089 0.07105781 -0.096960664 -0.035592165
-0.011774804 0.0027475534 -0.05104379 0.12742212 -0.017989092 -0.017576747 0.09183166 0.061848264
0.011860954 0.0052476586 0.0074729635 0.033936042 -0.0990957 -0.0791489 -0.2599235 0.111831024
-0.12743352 0.005992674 -0.024570318 0.051567074 0.045329332 0.11637745 -0.06958851 -0.18722862
0.008124848 0.067314684 0.12752554 -0.022799563 0.010841354 0.01735743 -0.0052896873 0.14510736
-0.030427147 -0.04037308 -0.12173388 -0.011339024 0.039034575 0.050889734 -0.003143683 0.013805116
0.030181862 -0.01850374 -0.08615891 -0.15082173 0.04732572 -0.017227568 0.008965838 -0.049794633
-0.057409845 0.018860659 -0.016897276 -0.022557994 0.0658768 0.008687013 0.08445608 0.04938

blocks.0.fc2.bias f4 [110]
00000000: 5e28 633d 89d7 70bd 774d e83c 2a71 8c3d
00000010: 1d65 dfbc 2f82 e93b 0c52 bcbd 9622 03bd
00000020: 1707 abbd da41 8ebd 7f52 aebd 7087 d5bc
00000030: 33f8 3ebd ce8a 70bd 110c 2c3c f91f 34bb
00000040: bc80 903c 28de 5abd 6bd9 84bd 4da8 d3bc
00000050: 57ee 0e3c 72ef c5bd 58ab d5bc ea9f 5e3d
00000060: 1e80 4d3d 597f 983c fb4a d3bc 7c36 daba
00000070: b05c 703d 756d 18bd 9aa1 71bd 8d22 6cbd
00000080: 4f26 9cbd b584 49bc 2e29 d7bc d943 853d
00000090: 0906 83bd 4ab9 5e38 0f96 a1bd 90f6 af3d
000000a0: 3dd7 b93c f802 8b3d b03c 0a3d 893e 113d
000000b0: 9f74 953c ac8c 96bd fcfc 093a 91da b0bd
000000c0: c6ba 8f3a 0463 16bd a936 1b3e a554 1c3d
000000d0: d940 a6bc 802d 88bc 9304 4bbd 2bc7 143d
000000e0: 1e48 3bbd 25b1 a33d 4f0b 6d3d 4600 c4bd
000000f0: d658 533d c425 8a3d 8211 0bbd c9d2 b3bc
00000100: d6b1 2fbb b288 98bc fe9a 193d e3a9 8fbd
00000110: 8fc2 113d a138 94bc e67c 723d afc3 97bd
00000120: fab8 7abd f573 12bd 3124 9b3d 8fe7 97bc
00000130: a048 253d d8d5 f33c e842 243d 5a61 dc3d
00000140: 180f b43b b70e 903d ed59 8abc 695b 073d
00000150: 0be6 33bd b38d b13d 0c19 8ebb 95d5 a13d
00000160: b6cb 9f3c cbcb 08bd be66 923d 92b2 b63d
00000170: 84bd 763b 7574 68bd e764 ba3d 6612 4a3d
00000180: bfa9 e03d cdf4 8c3c 0d61 103e cea4 f6bd
00000190: a5b4 c03b 40e3 3e3c ad3e c4bd a23b 10bd
000001a0: dbd5 58bd 1683 113c 71a2 95bc f447 c63c
000001b0: 4ec3 50bd 5844 bf3d
0.05545842 -0.0587993 0.02835725 0.06857522 -0.027269894 0.007126115 -0.09195337 -0.032015406
-0.08350962 -0.06946154 -0.08511829 -0.026065558 -0.04662342 -0.058726124 0.010500924 -0.0027484878
0.01763951 -0.05343452 -0.06486782 -0.025837088 0.008723817 -0.09664811 -0.02608268 0.054351725
0.05017101 0.018615412 -0.02579259 -0.0016648318 0.058682144 -0.03721376 -0.058992006 -0.057650138
-0.07624494 -0.012299706 -0.026264753 0.065070815 -0.063976355 5.310149e-05 -0.078899495 0.0859195
0.022685641 0.067876756 0.033749282 0.03546003 0.018244086 -0.0735105 0.0005263833 -0.08635438
0.0010965697 -0.036715522 0.1515757 0.03816666 -0.020294594 -0.016623259 -0.04956491 0.036322754
-0.045723073 0.07992772 0.057872113 -0.09570365 0.051598392 0.067454845 -0.033952244 -0.021951096
-0.002680888 -0.018619869 0.037501328 -0.07014825 0.035585936 -0.018093409 0.059201144 -0.074103706
-0.061211564 -0.035755116 0.07575262 -0.018543033 0.040352464 0.029765055 0.04010287 0.10760756
0.0054949634 0.07034057 -0.016888583 0.03304616 -0.043920558 0.08669605 -0.004336482 0.07902066
0.019506317 -0.033397477 0.07148503 0.08920778 0.0037649581 -0.056751687 0.09101277 0.049333952
0.109698765 0.017206574 0.14099522 -0.12043153 0.0058809095 0.01165086 -0.09582267 -0.03521312
-0.052938323 0.008881351 -0.018265935 0.024204232 -0.050967507 0.093392074

blocks.1.fc1.weight f4 [110, 110]
00000000: 99ed e1bd 734e 013d cd30 7bbc c663 503d
00000010: 3736 21bd 1dbe c0bd 4a35 483c 1bda 663d
00000020: 6ecb 23be 6ff4 aabd 16c2 3fbe 651e 2f3d
00000030: b2a4 24be a164 e43d 88ed e33b f506 5dbd
00000040: dfca b1bd c79f 32bd d865 283d 2d53 13be
00000050: e2f5 b0bb d0eb 823d 7b86 18be 6b3b 743b
00000060: b0cd f83b 88af d23b df82 a5bb d7b5 f939
00000070: 2fb7 4bbe 4492 dfbd 195b c3bd 6f79 fbba
00000080: 8423 b0bd 100a 60bc 6177 0ebe ac63 a43d
00000090: abe8 ecbc 6dda 083d a25d 9fbd 9fdb 52bb
000000a0: bb98 09be 0bd7 603c b7e2 a8bd 87b6 a3bd
000000b0: 8fef f53d 4a53 27be b1ba e9bd 64ee f73d
000000c0: f307 47bc a02e 05be f538 bcb9 634c 5ebc
000000d0: 5425 1f3c ac29 3b3d 3c37 86bc e3bb 75bd
000000e0: 1f2c 933d 7e7f 043b 6687 68bc 8487 69bb
000000f0: 1cca e5bd efc4 4c3d 3a8f 42be e7ce ad3d
00000100: 3e05 50be 1697 68bd c451 0e3d 0efa c6bc
00000110: d350 933d bb3b 4abc 1467 93bd a35c 3c3e
00000120: a434 67bc b449 053d c673 aebd fce4 eabd
00000130: a8d4 a4bc b596 703d 304c 933c 0a71 0ebc
00000140: 61f5 a4bc 897d d9ba f8c8 cebd 10a4 f8bd
00000150: 60ee f03d 731f 39bd 1c6e 903d 4b19 89bd
00000160: ccfc d5bc bb31 4fbe 56de 40bd 9d64 1fbc
00000170: 97bd 2a3d d1ae 493e 27a1 35bc 6d14 9c3d
00000180: 7b9c 15bc bbb1 81bb a015 07be 6580 dbbd
00000190: d983 84bd b93c 8bbc 1220 353d fd78 353d
000001a0: 0221 0c3e 7585 d53c faa1 06be 4601 493b
000001b0: 7dc8 4ebd 6cda 89bd f163 93bd add7 a5bd
000001c0: 3f17 be3d dc01 d83c 017d 8c3d f53a 2dbd
000001d0: 5d98 7fbd c62c 0a3c 0d03 e3bd b899 fabd
000001e0: f738 d1bd dba4 a0bc 2fe5 4bbd 5734 343e
000001f0: 72d3 433d c7d8 c5bd 179f e03d c3c7 5fbc
00000200: a793 b7bb 12bf 053d 57d3 cc3d 1c50 72bd
00000210: 5809 4c3d 3ddf d8bb 90fa 153c 5faa b5bd
00000220: 3317 8b3d 6962 253d bec3 4bbc f043 91bd
00000230: 29bd bfbc c5f4 903d a675 273c cdaf bfbc
00000240: 35fc ed3c 87f3 d53d bd2f 67bd 9052 5e3d
00000250: 2a00 34bd f5ec 0c3c c470 d5bd 471a 503d
00000260: defc cabc 06ae e53d ca70 9ebd 8f69 08bd
00000270: 729d bfbd 6366 4c3d 2d01 b1bd 354f d03d
00000280: 0e22 55bd 0ca7 ae3c 618a de3c f8b5 c93c
00000290: 9e56 afbd f787 a53d 85d3 4dbd d45e 063d
000002a0: 8855 be3c b757 d9bc 2440 983d 22a1 0cbc
000002b0: c8c1 9c3d 2e83 f43c fd8e dabd a153 fbbd
000002c0: 7847 2abc 1733 2f3c 1913 38bd 950e 7e3d
000002d0: 54a5 943d fb87 443d 8902 883d f495 1c3d
000002e0: 3cb2 50bc b219 ed3c 248a 11be 75a8 51bd
000002f0: dd9a 4cbd 378e 763d 2140 9b3d 3da5 9a3d
00000300: 0c65 b5bd e63c 883b f0d5 7bbd 780d 053b
00000310: 2ac8 bc3c 7480 0cbd 2757 5fbd b0d9 98bd
00000320: 4430 cc3d 397b 8b3d 0bd9 503c 38c6 5b3d
00000330: efce c9bd bd3c 0e3d 8c9e 013c 2765 bc3d
00000340: e9f8 1cbd 69eb 43be 4539 0bbb 8b40 d9bd
00000350: b07a 9ebd 2377 993d 7f32 ed3c c9a3 593c
00000360: 432d 82bc c1d5 1fbe 798e d6bc 2383 f63c
00000370: 217c a83c b759 2fbe 5e3a c5bd 90ef 02be
00000380: 1ef7 9abc b828 843d c477 4e3d 2497 123c
00000390: 0107 d53b ba63 f2bc 6902 17bc af6f 67bd
000003a0: c825 c3bc de67 07be 61af 843c 64f3 aa3d
000003b0: e933 c53d 8f3e 633d 6f72 1a3c d25f 503d
000003c0: 4cdc 63bd 5a2b 8e3d a0f4 11bd 1297 2fbd
000003d0: 79b9 c3bd f21e 2b3a b1af 8a3d e3dd a13c
000003e0: db03 babd 28ac 383d 8294 75bd 4b08 de3d
000003f0: 426f 62bd 3c2c 8dba 2510 85bd ebbf 00be
-0.11031646 0.031568956 -0.015331459 0.0508764 -0.039358344 -0.09411261 0.012219736 0.056360345
-0.15995571 -0.08347403 -0.18726382 0.042753596 -0.16078451 0.11152006 0.006955806 -0.053961713
-0.08681273 -0.043609407 0.04111275 -0.14387198 -0.0054004053 0.06392634 -0.1489505 0.0037266861
0.0075928792 0.0064296164 -0.0050510014 0.00047628462 -0.19894098 -0.1091657 -0.0953886 -0.001918597
-0.08600524 -0.013674274 -0.13912727 0.080268234 -0.028919538 0.033411432 -0.07781531 -0.0032174361
-0.13437168 0.013723145 -0.082463674 -0.07993799 0.12008583 -0.16340366 -0.11412562 0.12106016
-0.012147891 -0.13006067 -0.0003590059 -0.013568017 0.00971349 0.04569404 -0.01638376 -0.059993636
0.0718615 0.0020217593 -0.014192438 -0.0035633752 -0.1122019 0.049992498 -0.18999949 0.08486729
-0.203145 -0.05678471 0.034745947 -0.024289157 0.0719315 -0.012343342 -0.07197395 0.18394713
-0.014111672 0.032540992 -0.08518176 -0.114694566 -0.020120934 0.058737475 0.017980665 -0.008693943
-0.020136537 -0.0016593199 -0.100969255 -0.121406674 0.117642164 -0.045196008 0.07052252 -0.066942774
-0.02612152 -0.20233814 -0.047087036 -0.009728578 0.041684713 0.19695593 -0.011085785 0.076210834
-0.009131546 -0.0039579547 -0.13191843 -0.10717849 -0.064704604 -0.016996728 0.044220038 0.044304837
0.13684466 0.026064614 -0.13147727 0.0030670925 -0.05048417 -0.06731114 -0.07196797 -0.080977775
0.092817776 0.026368074 0.0685978 -0.042292554 -0.062401164 0.008433526 -0.11084566 -0.12236351
-0.10215943 -0.01960986 -0.049779113 0.17598091 0.04780907 -0.096604876 0.10967844 -0.013658467
-0.0056023183 0.032652922 0.100012474 -0.05915843 0.0498136 -0.006618409 0.009153977 -0.08870386
0.06791534 0.040377054 -0.012436805 -0.07093036 -0.023405628 0.07077936 0.010220921 -0.023399258
0.029050926 0.1044684 -0.05644201 0.054277956 -0.04394547 0.008601417 -0.10421899 0.05080631
-0.02477878 0.11214833 -0.077363566 -0.033303794 -0.09356202 0.04990233 -0.086428024 0.101713575
-0.05203443 0.021319889 0.027165594 0.024622902 -0.08561443 0.08082574 -0.05025055 0.03280528
0.023234144 -0.026531084 0.07434109 -0.008583339 0.07654148 0.029847708 -0.10671804 -0.1227181
-0.010393016 0.010693333 -0.044940088 0.062025625 0.07258096 0.047981244 0.066411085 0.038228944
-0.012737807 0.028942917 -0.14212853 -0.051186044 -0.049952377 0.06019422 0.07580591 0.07551048
-0.08857164 0.0041576503 -0.061483324 0.0020302217 0.023044664 -0.03430219 -0.054526474 -0.074633956
0.099701434 0.06810612 0.01274706 0.053655833 -0.098539226 0.034725893 0.007911336 0.09198981
-0.038323317 -0.1913277 -0.0021243852 -0.10608014 -0.077382445 0.07493427 0.028954742 0.013283678
-0.015890723 -0.15608884 -0.026190983 0.030091828 0.020567002 -0.17124067 -0.09630273 -0.12786698
-0.018916663 0.06453079 0.050407186 0.008947168 0.006501079 -0.029588569 -0.009216883 -0.056502994
-0.023821726 -0.13223216 0.016196908 0.08347204 0.09629042 0.055479582 0.009426697 0.05087263
-0.055630013 0.069418624 -0.035633683 -0.04286868 -0.095568605 0.00065277435 0.06771792 0.019759124
-0.090827666 0.045086056 -0.05995608 0.108414255 -0.055281885 -0.0010770629 -0.0649722 -0.12573211

blocks.1.fc1.bias f4 [110]
00000000: d8c7 84bd 5201 aa3d 25a4 da3c 290d 563c
00000010: 41c3 16bc b129 05bd dcf0 efbd 46b8 0d3d
00000020: 08b5 0d3c a7cb 8f3c fe6e 74bd b6df 1c3c
00000030: abfc 973c 6edd e93b decb 3b3d f7b1 5a3d
00000040: 132e 173b a33a a33d 81c2 4b3d cc7f e23b
00000050: 700d 313c 371c b6bc 346f 63bd 8a1a 4b3d
00000060: 60f6 2abc 80cd 1cbd 5aa9 b9bd b59c 81bd
00000070: a285 a43c eb5c 093d 751b d43d cb8d 2fbd
00000080: e7e3 98bd 460a a8bd 5128 b0bd c628 953c
00000090: e547 263d fc6c 8a3c a75d bcbc 6c1c aabd
000000a0: 8497 5e3d 6106 203d 02aa aa3d 6813 493b
000000b0: 9119 a4bd da9a 903d c72c c73b db93 d8bd
000000c0: 1f24 823d 451b d5bd de37 873c bd79 b33d
000000d0: d2bf b5bd a21b 8fbc 5ad9 ca3d 8a16 5c3d
000000e0: 06db 373d 494a 9ebc dfc6 d5bd 68da ccbc
000000f0: 5801 a03d 6da7 843d 48e7 a4bd 614a 8cbd
00000100: 26ad 7b3b 2f2e 33bd 6e1f 97bd 29d9 9bbd
00000110: cedc 52bd 2c8f 87bb cba1 763d c9ca 113d
00000120: 78ab 73bd 9ca0 80bc 30ab 04be bdee 7a3d
00000130: 6f0e 05bd 1e61 3ebd c42f 28bd 02c8 bdbb
00000140: c30d 9a3d f3eb 69bd 40e6 14bd d11f 473d
00000150: ffe7 cd3d f992 983c b9cc 163e dea7 0cbd
00000160: 36be d3bd d309 afbd fd57 7bbc 53bc 903b
00000170: ab72 b8bc c1bd 443d ce92 1cbd c258 7cbd
00000180: 5019 ab3d 3bca 183b b994 e1bd 1ebc d7bd
00000190: 2fd6 5f3d 834b 693d b124 f13c 39db 5e3d
000001a0: dea4 953d 48fe 3bbd 957d b7bd 5d10 65bb
000001b0: 5d86 363c 1f35 7ebd
-0.0648343 0.08301033 0.026689598 0.013064661 -0.009201826 -0.032510463 -0.11715862 0.034599565
0.008649118 0.017553164 -0.059676163 0.009574821 0.018553099 0.007136992 0.04584872 0.053392377
0.0023068234 0.079701684 0.04974604 0.006912207 0.010806426 -0.02223025 -0.055525973 0.049585856
-0.010434717 -0.038281918 -0.09065504 -0.063287176 0.020083252 0.03353588 0.103567995 -0.042859834
-0.07465344 -0.082050845 -0.0860144 0.018207919 0.040595908 0.01689767 -0.022993876 -0.08306202
0.054343715 0.039068583 0.08333208 0.0030681733 -0.08012689 0.070607856 0.006078336 -0.10575076
0.06354546 -0.10405592 0.016506132 0.08763454 -0.088744774 -0.017469231 0.09904738 0.053732432
0.04488661 -0.019322531 -0.10438322 -0.025006488 0.07812756 0.064772464 -0.08051926 -0.06850124
0.0038402765 -0.043745216 -0.073790416 -0.076097794 -0.051480107 -0.0041369405 0.06021289 0.03559378
-0.059489697 -0.015701585 -0.12955928 0.061262835 -0.032484468 -0.046479337 -0.041061178 -0.005791665
0.07522156 -0.057109784 -0.036352396 0.048614327 0.10054015 0.01862477 0.14726533 -0.034339778
-0.10339014 -0.08546796 -0.015340802 0.0044169812 -0.022515615 0.048032526 -0.03822594 -0.061608084
0.08354437 0.0023313898 -0.11014695 -0.105339274 0.05464762 0.05695678 0.029436441 0.054408286
0.073068365 -0.0458968 -0.089595 -0.003495238 0.011140433 -0.06206238

blocks.1.fc2.weight f4 [110, 110]
00000000: f606 8bbd ad3c 973d bca6 a8bd 27d3 f93b
00000010: e33c 9c3b dc20 9dbc 11bd 62bd 048f 75bc
00000020: 46d2 bd3c d04c d73c 5815 eebd 62c0 af3d
00000030: e64d 6c3d a27b 1fbe c216 a6bd 370b 103d
00000040: d7af 903d 8a43 b5bb 3f79 433e d3f4 06be
00000050: 2747 41bc e0dd 01be 7f05 e2bd a988 4d3d
00000060: 9961 b33d 923c 003e 8ec9 62bd c09a d0bc
00000070: d5e3 8f3c 4c93 20bd b167 813d 5c6b 88bd
00000080: 97bf ac3d 2c4e 10bd 2863 083e d47d b0bd
00000090: d78b b9bb b7a0 2f3e b90a 50bd 7104 5cbd
000000a0: 2b3b 203d f5c5 4cbd 5a4a b6bd f601 8a3d
000000b0: d456 353b 8db1 1b3d a2ad 98bd a249 4e3d
000000c0: 9ec9 8c3d 0264 c2bd 9290 fbbc 7563 57bd
000000d0: e674 59bd a220 78bd e0bc 053e 1d61 92bd
000000e0: cfc0 cbbc 3824 a3bc d5e1 3f3d f88b 4abd
000000f0: cbe8 afbb d64b 5c3c 6942 eebc d276 61bd
00000100: 0159 b23a f6f7 e4bd c36a 9fbc e1a8 123c
00000110: 90c4 e1bd c5cd 9cbd 9d0d a73d ddbd debd
00000120: 3c72 343d f844 a73d e938 5ebc e98f 283d
00000130: a3e1 71bc d7b5 aebd 335e 343c 87dc 2dbd
00000140: 35ee 333d 6fc8 6abd 8870 1b3d 6f59 4dbd
00000150: 7268 a33c 0c00 0e3e de8c 613d 6d8c c4bc
00000160: 02a7 d2bd a2f5 bdbc d3d8 6ebd 0074 963c
00000170: 9a54 bc3d 8317 02bd 4fb2 0dbe 132f dcbd
00000180: 4ee0 61bd 1600 1c3d 5c4f 2abe f348 7cbd
00000190: 3c21 43bd fd6f be3d 30ea 3ebc 8812 c4bd
000001a0: daa6 b6bd 5485 56ba 6cf0 8e3b 6722 6e3d
000001b0: a557 363d c47d 26bd 0e25 90ba 7872 17be
000001c0: bf65 61bd 46a1 f0bd 02ca 9bbd 1eff d73b
000001d0: 1b99 ad3b 9d7e 94bb 2938 273d 039e 563d
000001e0: 1b2a 8a3c 0d24 2e3b be5a a5bd 4437 e1bd
000001f0: fc99 dc3b 0c84 5bbc b4c6 7bbd 388c 3f3c
00000200: 7461 7abc 871c 98bd 0ade 35bc 7ee8 263b
00000210: 90de 16bd fb8d fb3c 361b 7dbc 1ab9 1e3d
00000220: 733c adbc a152 d6bc 06d6 783d 1e81 afbd
00000230: 3170 9b3d b3bb b73d edd5 803a 3e13 51be
00000240: d9c6 5e3e f56c dc3d d404 f83c 3846 a43d
00000250: 017f bcbd a205 0a3d d720 353d 5065 bcbc
00000260: 1463 4fbd 9dff 55bd f15a 833d 5683 cd3d
00000270: 9c4b d0bc 87a8 5e3c da24 783b 300f 83bc
00000280: dd04 8dbd 22d5 cdbc 8f26 673d fe68 a3bd
00000290: 93ac 89bd c533 97bd 7c71 5dbd 04a6 16bd
000002a0: 3f82 eebb 68a0 d13c 1067 2fbd 05ee 13bd
000002b0: 4135 0abd cb48 e63c f838 aabd 0410 023c
000002c0: d891 1bbe 23d2 0e3e a07f 233d 4ab4 96bd
000002d0: 567c 603d e1e4 943d 63f3 2b3c 8a55 19bb
000002e0: 040c eebd 0134 e53b c1d7 383d 40ab 15bb
000002f0: e6b1 e53d 1c92 0abe e8a7 d93c ec65 b1bd
00000300: 272c 913d 630e 733d 251f a23d b042 293d
00000310: 4127 c5bd a35a ffbc 4f97 763d fe7e 7fbd
00000320: 8c9a 803d 76e4 9cbc 3ac1 dfbc 6f0d 06bc
00000330: 0ecb c33d 826b 95bb 9175 4cbd b1b9 78bc
00000340: c2cd f5bb 3456 9cbd c9cb 033d 3d30 7f3d
00000350: 33b3 12be 9709 513d 0e6e 67bd 32ab 55bd
00000360: 254b 48bc edb4 59bd 56f8 3a3d 9a5c 2bbd
00000370: 47cc a1bc 2550 d03d 0de2 bf3d 8025 95bd
00000380: d1d2 d6bd e5cd 8a3d 4248 43bd 6620 9f3d
00000390: 23a2 a63c dc41 f03c 84c5 d2bc 1afa cabd
000003a0: f742 6e3c c5d4 1b3e 0803 5e3d f9a5 46bd
000003b0: e710 83bc 312f 5abc 9f14 de3d 49e6 423d
000003c0: 1d6c 32bd 90fd b63a 0f41 df3d 45ec cc3c
000003d0: a40c 8d3d 3c75 32bd 208d 0ebd 198e 0cbe
000003e0: d0a4 933d a86f c9bd d28c 9ebd fa05 cbbc
000003f0: 0a3a 003d ca17 db3d 126a d2bd a09b 413d
-0.06788437 0.0738462 -0.08234927 0.0076240483 0.0047680004 -0.019180708 -0.05535609 -0.014987711
0.023171555 0.026281744 -0.11625165 0.08581616 0.057691477 -0.15574506 -0.081098095 0.035166945
0.07064789 -0.005531733 0.1908922 -0.1317933 -0.011796749 -0.12682295 -0.110362045 0.050179157
0.0875885 0.12523106 -0.055368 -0.025464416 0.017564693 -0.039202973 0.06318606 -0.06661102
0.0843498 -0.0352308 0.13319075 -0.0861775 -0.005662422 0.17151152 -0.050791476 -0.053715173
0.039118927 -0.049993474 -0.089009 0.06738655 0.0027670162 0.038011122 -0.07454993 0.05036319
0.06874393 -0.09491731 -0.030708585 -0.052585084 -0.05309 -0.060577996 0.13060331 -0.07147429
-0.024872212 -0.019914731 0.04684623 -0.04944989 -0.0053683273 0.013445815 -0.029084401 -0.055044957
0.0013606847 -0.11180107 -0.019460088 0.008951397 -0.110238194 -0.07656435 0.081568934 -0.10876057
0.044054255 0.081674516 -0.013563373 0.04115287 -0.014763269 -0.08530777 0.011008787 -0.04244664
0.043928344 -0.057320055 0.037949115 -0.05013412 0.019947264 0.13867205 0.055065982 -0.023992741
-0.102857605 -0.023188416 -0.05831225 0.01836586 0.09195824 -0.031760704 -0.1383755 -0.10751166
-0.055145554 0.03808602 -0.16631836 -0.061593007 -0.047639117 0.09298704 -0.011652514 -0.09573847
-0.08918543 -0.00081833196 0.0043621566 0.058138277 0.044517178 -0.040647283 -0.0010997371 -0.1478976
-0.055028673 -0.117495105 -0.07606889 0.0065916916 0.0052977926 -0.004531695 0.040825043 0.052396785
0.01686578 0.002657178 -0.08073948 -0.10996869 0.0067322236 -0.013398182 -0.061468795 0.011691146
-0.015282024 -0.07427316 -0.0111003015 0.0025468166 -0.036833346 0.03070735 -0.015448382 0.038750745
-0.021146988 -0.026162447 0.060750984 -0.08569549 0.07589758 0.08971348 0.000982938 -0.20417497
0.21755542 0.107629694 0.03027574 0.08021206 -0.092039116 0.033696778 0.04422077 -0.022997528
-0.050631598 -0.052245725 0.0641383 0.10034816 -0.025426678 0.013589985 0.0037863762 -0.015998453
-0.06885693 -0.025126044 0.056433257 -0.0797901 -0.06722369 -0.07382921 -0.054063305 -0.03677942
-0.00727871 0.025589183 -0.042822897 -0.036115665 -0.033742193 0.028110882 -0.08311647 0.007938389
-0.15192354 0.13947348 0.039916635 -0.07358606 0.054806076 0.07270218 0.01049504 -0.0023396933
-0.116233855 0.0069947247 0.045127634 -0.0022837669 0.11215572 -0.13532299 0.026569322 -0.08662018
0.070884995 0.059339892 0.079160966 0.041323364 -0.09626628 -0.031171149 0.060202893 -0.06237697
0.062794775 -0.019151907 -0.027313817 -0.008181914 0.09560214 -0.004559935 -0.049916808 -0.015180991
-0.007501335 -0.076336294 0.032176767 0.062301863 -0.14326172 0.051034536 -0.05650144 -0.052165218
-0.012224947 -0.05315106 0.045646988 -0.04183636 -0.019750727 0.10171536 0.09369288 -0.07282543
-0.10489429 0.067775525 -0.047676332 0.077698514 0.020340985 0.02932828 -0.025728948 -0.09910984
0.014542333 0.15217884 0.05420211 -0.048498128 -0.01599927 -0.013316915 0.10843777 0.0475829
-0.043560136 0.0013961066 0.10901081 0.025015006 0.06887177 -0.043568835 -0.034802556 -0.13726081
0.0720917 -0.0983575 -0.07741703 -0.024783123 0.03130535 0.10697897 -0.102741376 0.047267556

blocks.1.fc2.bias f4 [110]
00000000: 59e8 fa3d 26b3 53bd 978a f8bc b80c 833d
00000010: 3005 b53c ec7e a23c d10f 1cbd a12c 013e
00000020: ae11 72bc 6f09 093d 989c 7d3d 4fa8 aa3c
00000030: 7c6a 2b3d 72a3 df3c 0a16 e13c a12e eeb9
00000040: 6db4 74bd 08f2 8dbd b8dc 30bd 32a1 673d
00000050: 02a2 b63d e0af 9d3c ff21 0dbd f5d8 88bd
00000060: d784 eb3c ac9c 2d3d 166e 123e 7b3a 163c
00000070: 97bd 843d f49a 88bd 1f8b 71bd c35d 873c
00000080: 575b a93d bb4b 8a3d 90d6 febc 84bf 633d
00000090: 33aa 11bd 7089 c53b 5822 4ebd 3100 3e3d
000000a0: a659 563b 4612 b93c 7aa3 63bd 5c20 f73c
000000b0: 45a9 213d 6356 fbbd 140f cc3d 7f73 b6bd
000000c0: 0b05 543d 4a38 a8bd 3beb 17bd 6af7 83bd
000000d0: f2c3 d23c 4e6f 8a3d b1cf 1fbd 109d 783d
000000e0: 3b33 f23c e7a7 023e 6fe8 a6bd 74f8 05bd
000000f0: 5999 7a3d 3938 8c3c 951f 1d3e 0410 a03d
00000100: d20c 5f3c 8841 0b3d 7180 d53d 222e ea3c
00000110: a914 1abd aa50 413d 0152 723d c98c 3b3c
00000120: 4f8a 75bd ffe6 793d c28b 863d cd79 af3c
00000130: 008f 7a3c 66b7 e73c 0283 543d 0f26 9fbc
00000140: 8770 6d3c bc9c ad3d 28fe f43c 5f6a ddbd
00000150: b701 dfbb 75b8 c9bb 99c5 a4bc 30d6 b2bc
00000160: a5ce 9c3d e63d 1b3d 1341 963d a2a9 de3c
00000170: 2d3d 01be dfa7 f73c 41f2 5c3c d9b6 5fbc
00000180: 9d4c 18bc 889f 373d fbe8 413d 4874 303c
00000190: bf67 51bd c578 20bd 8c45 b6bd 13b2 683d
000001a0: 9e04 693c c16d 6dbd 60eb 063e d710 c13c
000001b0: ed89 08be 1458 ce3c
0.12251348 -0.05168452 -0.030339522 0.0639891 0.0220972 0.019835912 -0.03810102 0.12614681
-0.014774723 0.033456262 0.061916918 0.020832209 0.0418496 0.027299616 0.02747633 -0.0004542964
-0.05974238 -0.069309294 -0.043179244 0.056550212 0.08917619 0.019248903 -0.03445625 -0.06682006
0.028749866 0.042385742 0.14299807 0.009169216 0.06481474 -0.0667018 -0.058970567 0.016524201
0.08269375 0.06752726 -0.03110817 0.055602565 -0.035562705 0.0060283467 -0.05032572 0.0463869
0.0032707243 0.022591721 -0.055575825 0.030166797 0.03946807 -0.12272336 0.099638134 -0.08908748
0.05176262 -0.08213861 -0.037089568 -0.06443675 0.0257282 0.06759511 -0.03901643 0.06069666
0.029565444 0.12759362 -0.08149802 -0.032707646 0.0611814 0.017116653 0.15344079 0.07815555
0.013613896 0.033998042 0.10424889 0.028586451 -0.03761736 0.047196068 0.059160236 0.01144714
-0.059946354 0.06101131 0.065696254 0.021420384 0.015292883 0.028285693 0.05188275 -0.019427327
0.014492161 0.0847716 0.029906347 -0.10811304 -0.0068056243 -0.006156022 -0.020113753 -0.021830648
0.07656602 0.037900828 0.07336631 0.027180497 -0.12620993 0.030231414 0.013485492 -0.013654434
-0.00929561 0.044829875 0.047341328 0.010769911 -0.05112433 -0.039177675 -0.08899984 0.05681045
0.014222292 -0.057965998 0.13175726 0.0235676 -0.13333865 0.025188483
