Exercise_1/models/best_model_MLP.pth (torch, 440270 bytes, 6 tensors)

fc1.weight f4 [128, 784]
000000 5f 13 4b 3d f8 15 7e 3c 34 f3 e8 3c a9 92 2d 3c
       0.04957902 0.015508167 0.02843628 0.010594049
000010 f4 26 78 bc 1c 3a c0 3b cf 00 9f ba 63 03 9c bc
       -0.015146006 0.005866302 -0.0012130978 -0.019044584
000020 80 9f 39 3d f8 99 31 3d 33 10 20 3b 8a 17 44 3d
       0.045318127 0.043359727 0.0024423718 0.04787401
000030 a8 25 cd 3c b2 32 48 3d e7 86 ec 3c 9f ce 09 3d
       0.02504237 0.04887647 0.02887292 0.033644315
000040 3f 21 4f 3d 0d 34 3c 3d e3 93 84 bc 3d 8c 07 3d
       0.050568815 0.045948077 -0.0161838 0.033092726
000050 e0 9a 07 3d 7d 6b c1 3c c3 0c c7 3c 2c b7 9f 38
       0.033106685 0.023610825 0.024298077 7.615829e-05
000060 b7 06 93 bc 2b a9 f5 bb e9 6b f5 3c 12 9d 9f 3c
       -0.017947538 -0.007496973 0.029958682 0.019484077
000070 58 7f 8b bc 13 84 92 bc 0e 03 40 3d 6e 34 ff 3c
       -0.017028496 -0.017885244 0.046877913 0.03115293
000080 7d cb e4 3c 7b 58 6b 3c de 33 27 bc 0d 3d b3 3c
       0.027929062 0.014364357 -0.010205237 0.021879697
000090 7f 73 96 bc df 14 40 3d 06 82 e9 3c ea 91 4b 3d
       -0.01836562 0.046894904 0.028504383 0.0496997
0000a0 ab eb bf 3b b5 aa 8f 3c b9 e1 05 3d 31 79 0b 3d
       0.0058569512 0.017537454 0.03268597 0.034051124
0000b0 28 ca fd bc fe 9e ff 3c cf 9b 40 3c 54 f4 d2 3b
       -0.030980185 0.031203743 0.011755898 0.0064378176
0000c0 a3 f3 28 3d 5f a8 d5 3c 1d 67 54 3a e9 b4 04 3d
       0.041247975 0.026081262 0.0008102523 0.032399092
0000d0 f5 f1 d7 3b 38 9e e0 ba 0b 56 2b 3d fa a2 37 3d
       0.006590123 -0.0017136997 0.041830104 0.04483316
0000e0 f1 d9 71 bb c0 46 88 bc fe 34 38 3c 6c 8c 50 3d
       -0.0036903585 -0.016635299 0.011243103 0.050915167
0000f0 24 f9 e4 bb f4 ea cb 3c f5 ae 5c bc 7d 3b e8 bc
       -0.0069877077 0.024892308 -0.013469447 -0.028348679
000100 f5 70 7f bd 8a 9d 09 bb 5f 87 b8 bc 09 a6 fc bc
       -0.062363584 -0.0020998442 -0.022525487 -0.03084089
000110 61 7b 93 bc f0 38 9a 3c 93 df 8c 3d 73 07 9e 3d
       -0.018003168 0.018825978 0.06878581 0.077162646
000120 c5 d3 27 bd 5e 3b 0a bd da 26 0e bc 0c 4d 8c bb
       -0.040973444 -0.033748023 -0.008676255 -0.0042816456
000130 fd 1a 03 3d 90 ba a4 bc 09 30 ef bb 36 e0 3d 3d
       0.03200816 -0.020108491 -0.0072994274 0.046356402
000140 c4 8e c7 3b e2 8c 1d 3d 2b fb a4 3a fa 1d 16 3d
       0.006090017 0.038464434 0.0012587061 0.03664968
000150 8c 4f 3b 3b 2c db 5f bc 1d 94 e7 3c 03 e8 e9 3c
       0.002858135 -0.0136630945 0.028268868 0.028553015
000160 3a a9 43 3d c0 e5 09 bc 8a ff 85 3c 3c 5d ce bc
       0.04776881 -0.008416593 0.016357202 -0.025190942
000170 96 a9 f6 bc 98 bd b3 bd d9 01 63 bd 99 94 7d bd
       -0.030110162 -0.087763965 -0.055421684 -0.061909292
000180 f7 1a 47 bd 5c a1 3b 3d 10 53 d7 3d 1d 26 12 3e
       -0.0486097 0.04580818 0.1051389 0.14272352
000190 dd ad a4 3d 39 55 b0 3d ee 5e 2f 3d 5f b1 90 3d
       0.08040974 0.08610005 0.04281514 0.07065081
0001a0 bf 2a 6c 3d 47 0e 4b 3d 72 42 ac bc 26 b2 5c 3c
       0.057657953 0.049574163 -0.021027777 0.013470208
0001b0 3d 71 2a 3d 4a d9 7a 3d 00 37 36 3d 71 f0 92 bc
       0.0416119 0.06124238 0.044486046 -0.017936917
0001c0 39 6c 24 bb 2c 1f 18 bb c5 de ec 3c 3c 52 65 bc
       -0.002508892 -0.002321194 0.028914819 -0.013996657
0001d0 f6 e9 c2 3c 86 0f cd bb 0b b3 8d 3c 8b d3 ae 3c
       0.023793202 -0.006257954 0.017297288 0.021341106
0001e0 f0 40 5a 3d 0d d0 6e 3d 2b 4c b1 3d 2d 0b d1 3d
       0.053284585 0.05830388 0.08657106 0.1020721
0001f0 66 d9 15 3e 02 f3 37 3e e2 ba 12 3e 18 b1 77 3d
       0.14633712 0.17963794 0.14329103 0.060471624
000200 dd 26 c1 3c 47 e4 97 3c a4 27 67 3d 3b e2 2b 3e
       0.023578102 0.018541468 0.05643429 0.16785519
000210 cb 51 16 3e 63 52 7d 3b ff b0 22 3d 67 d1 b6 3d
       0.14679639 0.0038653843 0.039719578 0.08926659
000220 4b 25 a4 3c e4 30 c8 3c 90 b0 3d 3d a0 65 47 bb
       0.020037314 0.024437375 0.04631096 -0.0030425563
000230 62 14 48 3d aa 87 ba 3b 0f a9 a5 bb 8b e2 21 3d
       0.048847564 0.005692442 -0.0050555537 0.03952269
000240 12 65 3a 3c 79 c3 9c bb 30 49 d2 bb 76 3e 8f 3d
       0.011376636 -0.0047840443 -0.006417416 0.06994335
000250 a6 00 0a 3e 6f 01 0e 3e 8a 76 da 3d cb 57 ce 3d
       0.1347681 0.13867734 0.10667141 0.10075339
000260 43 a9 00 3e 72 5e dc 3d b8 0b 30 3d 16 63 fc bc
       0.12564568 0.107602015 0.042979926 -0.030808967
000270 93 d9 8f bc 88 ec be bd e4 4a 12 bd 25 d8 f8 3d
       -0.017559802 -0.093224585 -0.035715953 0.12150601
000280 cb 2e e5 3d 64 8e 03 3e cf 98 6d 3d 36 05 a8 3c
       0.11190566 0.12847286 0.058007058 0.020510297
000290 51 dd 6f bc 85 79 bb 3c 7e 2e 17 bc fa 82 f3 3b
       -0.014640168 0.022885093 -0.009227393 0.007431385
0002a0 3e 41 03 bc 55 c9 11 3d 35 e7 9b b9 99 9c 0b 3d
       -0.00801116 0.035592396 -0.00029736166 0.03408489
0002b0 5b f8 8f 3c 01 a5 7f 3b b6 4e 49 bd b0 c5 a3 3d
       0.01757448 0.0039008262 -0.04914733 0.0799669
0002c0 71 68 99 3d a6 b0 77 3d f5 9e 6b 3c e3 94 a2 bc
       0.07490624 0.0604712 0.01438116 -0.019846385
0002d0 4d 56 5e bc b4 60 f1 b9 d1 61 61 bd da 27 a5 bc
       -0.01357038 -0.00046039151 -0.055024926 -0.020160604
0002e0 cd 74 18 bd 11 31 90 bd a0 fa 3d bc bb 99 9a 3d
       -0.037220765 -0.07040609 -0.011595398 0.07548853
0002f0 2b 62 9a 3d dc af df 3d a8 0a 30 3e 01 2b 03 3e
       0.07538255 0.109222144 0.17191565 0.12809373
000300 6d 3b 01 3b 52 e5 e4 3c 1e 61 5f bc 46 91 43 3d
       0.0019719258 0.02794138 -0.013633994 0.047745965
000310 ef bd 21 3d 50 3c 8b 3c 3e 53 d0 3b 26 48 1b 3d
       0.039487775 0.016996533 0.0063575795 0.037910603
000320 b2 2e 3e bc 69 88 57 3c f0 50 1f bd 43 f2 6e 3c
       -0.011607813 0.013155081 -0.038895547 0.014584127
000330 6f b4 92 3c f4 07 39 3c 97 b0 74 bd 3a 22 31 bd
       0.017908303 0.0112934 -0.05973872 -0.04324553
000340 48 64 8d bd b7 d4 ac bd 7a e0 67 bd 2d 71 bc bc
       -0.06903893 -0.0843901 -0.056610562 -0.023003185
000350 80 6b 04 bd 75 65 cc bd f8 16 38 bd bf e7 dc bc
       -0.032329082 -0.09980289 -0.04494378 -0.026965974
000360 95 6d 57 3d 05 95 1a 3e 4f a8 8e 3e 31 07 47 3e
       0.05259474 0.15095909 0.27862784 0.19436337
000370 80 47 a3 3d 6e d6 c0 3b bb cf 30 3d 0e 5c 26 3c
       0.07972622 0.005884937 0.043166857 0.0101537835
000380 f0 ab a4 3b c6 97 fd 3b 5b ea 3c 3d dd 36 54 3c
       0.0050253794 0.00773904 0.046121936 0.012952534
000390 7c 9d 07 3c c2 da aa 3b dd 40 6c 3c 91 9c 03 3d
       0.008277293 0.0052140662 0.0144197615 0.032131735
0003a0 92 bc 3b 3d f4 a3 a4 3d 47 5a 0f bc af bd 06 bd
       0.04583413 0.08039084 -0.008749551 -0.03289574
0003b0 96 91 8b bd f9 10 18 be 82 b0 04 be 23 f9 9b bd
       -0.06814878 -0.14850225 -0.12957957 -0.076158784
0003c0 de 3b 32 bd a3 23 01 be e4 c2 02 be d0 f9 95 bd
       -0.043514125 -0.1261125 -0.12769657 -0.073230386
0003d0 7d 61 6f ba 25 03 d5 3d a4 29 49 3e d4 ce 6a 3e
       -0.00091316534 0.104009904 0.19644791 0.22930461
0003e0 e6 22 36 3e 96 55 37 bc b5 db 0d 3d 3f 0d b1 3c
       0.1778675 -0.011189839 0.034633357 0.021612762
0003f0 09 82 51 bc 03 19 65 bb b7 9f 22 3c 01 05 3c bc
       -0.01278735 -0.0034957535 0.009925774 -0.011475802

fc1.bias f4 [128]
000000 6b 74 43 3c f2 17 47 3d 9f c4 e3 bc ff 0d 0f 3d
       0.011929612 0.04860682 -0.027803717 0.034925457
000010 d2 3f 0f 3c 96 f1 58 bc 57 8e a0 bc 45 1d 0f 3d
       0.008743243 -0.013241192 -0.019599123 0.034940023
000020 7f 43 8b bc ce 86 02 3c 96 1a f2 bb 8a 5e fb bc
       -0.016999958 0.00796671 -0.007388423 -0.030684728
000030 0b d5 35 3c cf 14 5c bc cf 14 cc bc 79 8f 67 bc
       0.011098157 -0.0134326955 -0.024912266 -0.014133328
000040 a0 d4 b3 3b e8 29 9f bc 69 f3 f1 bb 2c 44 1a bb
       0.0054879934 -0.019429162 -0.007383753 -0.0023539169
000050 28 43 a2 bc d5 5b 35 bc 7f 5e 9e bc a4 14 d1 3a
       -0.019807413 -0.011069258 -0.019332169 0.0015951586
000060 a5 62 ae bc 15 a9 3c 3c b1 4a 4c bc ff 03 bc bc
       -0.021287272 0.011514922 -0.01246898 -0.022951124
000070 45 41 12 bd 3c 12 ec bc c0 4e f8 3c f6 84 36 bd
       -0.035706777 -0.028817289 0.030310988 -0.044560395
000080 e9 24 21 bc 23 bd 01 bd ac c0 d2 bb aa b5 03 3c
       -0.00983546 -0.031674515 -0.0064316597 0.008038918
000090 1f e3 1b bc 66 f4 80 3c cb f4 95 bc 17 7a 2c bc
       -0.009514599 0.015741538 -0.018305203 -0.010527155
0000a0 2f 03 8c 3b 1b 0b 0a bc 3f 50 39 bb 16 10 a2 bc
       0.0042728405 -0.008425499 -0.002827659 -0.019783061
0000b0 a5 e3 01 bd bb d8 da bb 9b fa 28 3c e6 21 1a 3d
       -0.03171124 -0.0066786683 0.010313655 0.037629984
0000c0 10 75 c7 3c 30 84 a1 bc 5a 09 4d bc 5b d7 8a 3c
       0.024347812 -0.019716352 -0.012514437 0.016948393
0000d0 4a 70 3b bc a6 56 97 bc ba 35 fe 3b b1 f9 f3 bb
       -0.011440346 -0.018473934 0.0077578695 -0.007445537
0000e0 62 d9 29 bd 4d 91 23 bc 2b ce f8 bc 7b 47 0f bd
       -0.041467078 -0.009983373 -0.030371746 -0.03498028
0000f0 40 37 68 3c c5 4f 3e 3d 96 fa f5 bc d1 80 a3 3a
       0.014173329 0.046462793 -0.030026715 0.0012474303
000100 d9 8f a4 bb 88 1e 14 bd f4 ac 31 3b 5a b0 5b 3d
       -0.005022031 -0.03616193 0.0027111145 0.05363498
000110 44 0b 88 3b 6d 06 23 3b bf 51 17 3c 59 23 cc bb
       0.0041517336 0.0024875656 0.009235798 -0.0062297997
000120 33 aa b9 bc d9 a7 f4 bc b4 77 66 3b e7 b0 b0 bc
       -0.022664165 -0.029865192 0.0035166563 -0.021568729
000130 8d a8 0e 3c b3 7d 16 bd b7 7b eb bb f9 62 a3 bc
       0.008707178 -0.03674097 -0.007186379 -0.019944655
000140 56 d9 28 3c 7e 75 87 bc 7c cc 8d bb 53 a4 c7 3c
       0.010305723 -0.016535517 -0.004327355 0.024370348
000150 11 c5 85 3c c8 ea 77 3c 76 fc 0e 3c 06 97 10 3d
       0.01632932 0.01513166 0.008727184 0.035300277
000160 91 e2 f9 3b fb 23 41 bc e6 87 c8 3c eb 8c 8f 3a
       0.007625886 -0.011788364 0.024478864 0.0010952031
000170 29 cb 6f bc ec de 4b bd dc 3f 0b bd 9c 72 24 bd
       -0.0146358395 -0.04977314 -0.033996448 -0.040148363
000180 2d 1b 3e bd d8 cf 0c bd a7 d2 93 ba ed b4 65 bc
       -0.046412636 -0.034377903 -0.0011277989 -0.014020187
000190 e9 9d 0a 3c bb 60 cd bc 61 07 b8 bc b2 49 91 3b
       0.0084605 -0.025070539 -0.022464456 0.004433834
0001a0 30 74 ab 3c fb 79 a9 3c 1d f5 7d bb 66 dc ab bc
       0.020929426 0.020688048 -0.0038750835 -0.020979118
0001b0 ab 9f a8 ba 0d 81 4b 3c cc 78 ff bb b8 76 da bc
       -0.0012864968 0.012420905 -0.0077963825 -0.026667938
0001c0 01 d1 11 3b f2 06 de bc 0c 01 08 bd e5 81 37 3b
       0.002224982 -0.027102921 -0.033204123 0.0028001007
0001d0 6a 0c 0f 3c ad fa 2f 3d c7 0f e8 bc be 25 c8 bc
       0.008730987 0.042963672 -0.028327836 -0.02443206
0001e0 30 7c 54 bd 4b 92 f5 bc ce cc 24 bd 9d c1 33 3d
       -0.051876247 -0.029976984 -0.04023438 0.043885816
0001f0 59 30 b9 3c ee d2 b6 3c 95 78 eb 3b 65 12 8f 3c
       0.022606062 0.022317376 0.0071860054 0.017464826

fc2.weight f4 [64, 128]
000000 a9 76 55 bc b3 93 fa bc fa 84 e9 3d 46 18 d2 3c
       -0.013028779 -0.030588007 0.114023164 0.02564634
000010 36 a7 d2 bd 00 3b cc bd 72 cb 51 3d e3 43 c6 bd
       -0.10285799 -0.09972191 0.05121941 -0.09680917
000020 47 aa 8b 3d fe 4a 21 be 78 da 29 be 6b 94 10 3d
       0.06819587 -0.15751263 -0.16587245 0.035297792
000030 c5 49 1b 3e 6b 95 68 bd a8 1c fa 3d b7 1d 2a 3c
       0.1516486 -0.05678312 0.12212497 0.010383061
000040 57 c5 73 3d dd 09 0f be 3a 2d 1b 3d 9c 1b 83 3d
       0.05951437 -0.13968606 0.03788493 0.064017504
000050 46 26 22 be fe 62 c6 bc ce 34 3f bd b0 1e 1c bd
       -0.15834913 -0.024217125 -0.046681218 -0.038115203
000060 eb 83 cd bd 97 2d 64 3c a4 e1 9b 3d 0f 25 ce bc
       -0.10034927 0.013926885 0.07611397 -0.025164155
000070 4e fa 6f bd f4 69 b0 3d 89 e0 92 bd e9 6e cc bd
       -0.05858832 0.08613959 -0.07171733 -0.09982092
000080 3a 66 f7 bb 46 3d 09 3b 20 0d 40 bd 05 4c 12 bd
       -0.007550028 0.0020941063 -0.046887517 -0.03571703
000090 c8 b5 5e 3c 1b fa 90 3d 42 98 7d bd b9 e3 b8 3d
       0.013593145 0.07078954 -0.061912782 0.0902781
0000a0 d0 8a 93 bc d9 3e 67 3b 6e dd 01 3d f6 aa 3a be
       -0.018010527 0.0035285263 0.031705312 -0.18229279
0000b0 05 09 0b be a7 c9 c0 3d 81 ef 23 be 76 1d 5e bd
       -0.1357766 0.09413462 -0.16009332 -0.054227315
0000c0 52 b7 b7 3c 69 1c 86 be 4f 94 84 3d 3e 6d 87 3d
       0.022426281 -0.2619355 0.064736 0.06612633
0000d0 d0 73 e4 3c 48 83 00 bd 65 81 30 3d 8f 55 e7 bd
       0.027887255 -0.0313752 0.04309215 -0.11295616
0000e0 6c 55 f9 3c 6d 68 b2 bc e0 f0 0a 3e 6a 2c 38 be
       0.03043624 -0.02177831 0.13568449 -0.17985693
0000f0 79 2b 7d 3d 88 f1 b0 bd 44 02 06 3d 51 ec cd bd
       0.061809037 -0.086398184 0.032717004 -0.100548394
000100 92 1c 0c 3e a6 47 6a 3c 85 5b 59 3e 9a 27 02 bd
       0.13682774 0.014299309 0.21226318 -0.03177605
000110 b0 47 46 bd 98 81 20 3d c2 63 25 3e e6 c8 3f 3d
       -0.04840821 0.03918609 0.16151336 0.04682245
000120 1c 02 5b bc d6 b7 f6 bc 26 ae c8 3d 15 2a 2d 3d
       -0.013367202 -0.030116957 0.09798841 0.04227646
000130 b9 ef 18 3d de d7 b5 bd 6c 3e 2d 3e 4e eb c5 bd
       0.037337992 -0.08879064 0.16918343 -0.096640214
000140 7a f6 88 bc 36 6c 15 3d f3 be cb 3d fc 22 b7 3d
       -0.016719092 0.03648015 0.0994853 0.089422196
000150 14 f1 2e bd be 77 ba 3c e7 be 09 be 28 d5 16 3e
       -0.04271038 0.022762176 -0.1345173 0.1472975
000160 a0 81 d0 bc 08 a2 06 be 81 49 a3 3b e1 50 04 3e
       -0.025452435 -0.13147748 0.0049831276 0.12921478
000170 73 e7 1c 3e cc 1a 8c 3d 4a da b5 3a 79 46 84 be
       0.15322666 0.068410486 0.0013874259 -0.25835016
000180 08 fa 25 3d cb 5f 6b bd 93 4b c7 3d b3 d5 0c 3e
       0.04052165 -0.057464402 0.097312115 0.13753395
000190 0f 54 af 3c bf 30 d4 3d 14 39 58 bd 84 e9 14 3e
       0.021402387 0.1036086 -0.05278881 0.14542204
0001a0 29 ac a8 3d 22 b0 aa bb c3 18 63 3d cb de 78 3d
       0.08235962 -0.005208985 0.055443536 0.060759347
0001b0 01 2a 42 3d e3 f4 85 bd 0a 84 10 3d 35 13 65 3c
       0.04740334 -0.06540849 0.035282172 0.01398163
0001c0 bb fc a2 bc df 96 17 3e 23 41 fe bd 2b 0e 12 3d
       -0.019895902 0.14803647 -0.124147676 0.035658043
0001d0 ab 41 9c bc 9e 52 fc bd bc 1c aa bd 40 af 79 3d
       -0.019074282 -0.123204455 -0.08306262 0.060958147
0001e0 b8 33 06 be 30 86 9f 3d 03 e5 75 be 29 13 fb 3c
       -0.13105667 0.07789266 -0.24013142 0.030648785
0001f0 b9 ad 3f bd 74 39 34 bd e8 48 eb bd 08 c8 dc bc
       -0.046796534 -0.044000104 -0.11488515 -0.026950851
000200 0a e4 9b bc 79 07 b1 bd e5 91 c2 3d dc c6 45 bc
       -0.019029636 -0.086440034 0.095004834 -0.012071338
000210 8b 9c 7c be c7 a7 f5 bd 2a 22 cd bc 82 25 9c bd
       -0.24669091 -0.119948916 -0.025040705 -0.076243415
000220 a4 b8 c7 3d 1a d1 fa bd c2 d6 90 bd 34 a2 a7 3d
       0.09752014 -0.12246914 -0.07072212 0.08185235
000230 6a f8 bf 3d 94 7b d9 bd 8c 68 34 bd 5d 80 62 3d
       0.09373553 -0.10619274 -0.044045016 0.055298198
000240 b0 af a0 3d 6a f4 60 bd 44 d9 ad bd 35 b1 9c bb
       0.0784601 -0.05492059 -0.08488706 -0.004781867
000250 95 9a 91 3c cd 6d 15 3b 6f a4 2a bd 7f 39 6e bd
       0.017773906 0.0022801042 -0.041660722 -0.0581603
000260 0e d5 c8 bd 86 53 3f bd f6 5f a3 bb 94 b2 3b bd
       -0.09806262 -0.046710514 -0.0049858047 -0.045824602
000270 0b 43 77 bd 99 25 93 be a4 aa 41 bc be 68 3a bd
       -0.06036667 -0.28739622 -0.011820469 -0.045510046
000280 c4 4e 08 3d 19 46 f6 ba 78 b5 bf 3c e5 f5 01 be
       0.03327824 -0.0018789201 0.02340196 -0.12691458
000290 00 aa 08 be a1 61 bd 3d f8 b6 89 3d a8 f4 42 bc
       -0.133461 0.09247137 0.06724352 -0.011899151
0002a0 57 c9 bb bd 73 fc 86 bd 64 fc 7b 3c 4a 93 23 be
       -0.09169262 -0.065911196 0.015379999 -0.15974155
0002b0 17 37 33 bd 71 cc 87 bc 9a fb 11 bc 35 66 cb 3c
       -0.04375371 -0.016576977 -0.008910084 0.02482901
0002c0 f7 f5 49 bc 0c 56 0d 3e a6 94 c5 3c cd 56 43 3d
       -0.012326709 0.13802356 0.024118733 0.0476902
0002d0 f4 42 d8 bd fb 29 0f bc e7 7f 78 bd f5 8d d3 3d
       -0.10559645 -0.008738036 -0.060668852 0.103298105
0002e0 68 96 6b be 60 ad 1f 3a ff b3 f3 3c 46 59 61 be
       -0.23006594 0.00060912035 0.029748915 -0.22006711
0002f0 69 0f 83 3d f6 a6 43 bd c5 e0 20 3e 68 f8 76 3c
       0.06399424 -0.04776665 0.15710743 0.015073873
000300 9d e6 c0 3d 06 1d f2 3d 53 c9 07 3d 3b b4 ee 3d
       0.09418986 0.11821942 0.033150982 0.1165547
000310 7a 70 0b 3d 20 30 02 3e e3 d5 28 bc df 99 26 bd
       0.034042813 0.1271367 -0.010304901 -0.040674087
000320 91 ac b1 bc ed cf 8a be e1 61 aa 3d ef f8 b6 bd
       -0.021688731 -0.2711176 0.0831945 -0.08934199
000330 34 94 16 bd 37 e2 1f bc 8e 4c 03 3d fb e5 d0 3c
       -0.03676243 -0.009758524 0.03205543 0.025500288
000340 e5 ca b3 3d ad e3 2a 3e b3 cf 7f 3b 73 48 a8 3d
       0.087789334 0.16688414 0.003903371 0.082169436
000350 51 46 e6 bc b6 dd 08 ba 94 cb 2a 3e a7 e3 a1 bc
       -0.028109701 -0.0005221026 0.16679221 -0.019761873
000360 c6 5a 55 3c 6b 4a 9e bc 25 b8 33 bd 37 b2 88 3d
       0.01302213 -0.019322595 -0.043876786 0.06674617
000370 ef bc 24 3e d6 f9 23 bd e1 e5 cd 3c 89 2e 64 bd
       0.16087697 -0.040033184 0.025134029 -0.055708442
000380 7b 9e b5 3d 3b da a5 bc 3e 2b 4b 3d 77 11 49 3d
       0.088681184 -0.020245662 0.049601786 0.04908892
000390 8a 61 c4 3d fa ec 21 be 5e 8f ac bc bb 8e ce bc
       0.095889166 -0.15813056 -0.021064457 -0.025214544
0003a0 6d ad 1d 3e c7 6a ce 3c 4e a9 70 3d 92 ac 29 bd
       0.15398188 0.0251974 0.05875521 -0.04142434
0003b0 69 f1 0b be 9f 97 0b bd c1 c0 1b bd 98 73 00 3e
       -0.1366631 -0.034080144 -0.03802562 0.12544096
0003c0 9b b1 43 3d c5 5d a5 bd af 50 a2 3d 24 d6 ba 3d
       0.0477768 -0.08074526 0.079255454 0.09122875
0003d0 f8 2a 53 3d 36 9e 54 be 30 ad 01 bd 4e ad 4a 3d
       0.05155465 -0.20763478 -0.031659305 0.049481682
0003e0 ee 45 bd 3d af d0 0a be a1 18 30 bd f0 a2 20 3e
       0.09241854 -0.13556169 -0.042992238 0.15687156
0003f0 13 82 01 3e 5d 38 31 bd e8 79 5d bd e3 cf 7e 3c
       0.12647276 -0.043266643 -0.054071337 0.015552494

fc2.bias f4 [64]
000000 ad 86 dd 3d c1 b0 71 3d 57 cb e4 bc c3 71 88 bd
       0.10816703 0.059006456 -0.027928991 -0.06662323
000010 99 27 9d bd 8f d5 11 3d 1c 18 4e 3b 65 2f a0 bd
       -0.07673568 0.035604056 0.0031447476 -0.0782154
000020 f1 a3 4d bd 90 37 3f bd be b4 06 3e d2 ab 78 bd
       -0.050205175 -0.046683848 0.13154885 -0.060710736
000030 25 94 6d 3d 54 f8 8c 3d a3 a9 9f 3d 1c cd af bd
       0.05800261 0.06883302 0.077960275 -0.085840434
000040 78 7d 14 bd 44 94 0d bd 7a b8 c4 bc 6b 6d 82 3d
       -0.03625247 -0.034565225 -0.024013747 0.06368526
000050 53 8e 20 bd 28 cd 48 bd 0a 3a c1 3d d5 83 74 3d
       -0.03919823 -0.049023777 0.09434898 0.059696037
000060 20 91 5f 3d 00 1f 02 bd 63 ec aa bb b9 ed 9f bd
       0.05458176 -0.031767845 -0.005216168 -0.07809014
000070 78 80 cf bb 2c 78 46 3c 1d b3 14 bd da 52 4c 3d
       -0.0063324533 0.012113612 -0.03630363 0.0498837
000080 45 5b 65 bc bf 64 68 bd 15 27 ac bd 23 ee 27 bb
       -0.013998811 -0.056736704 -0.08405892 -0.0025624118
000090 f8 45 ca 3d 7a 08 4e bc 64 19 4e 3d 66 cc f9 3d
       0.09876627 -0.012575263 0.050317183 0.12197189
0000a0 33 5e d6 3d 2e a2 06 3d 16 af 5c bd ec fb b0 3d
       0.10467186 0.03286951 -0.053877912 0.086418
0000b0 ca ac 1e bc ee 63 a1 bd 44 2f a2 3d 31 00 24 bd
       -0.009684751 -0.07880388 0.079191715 -0.040039245
0000c0 9d aa 21 3d f4 b0 8d 3d 12 92 22 bd 99 94 e4 3c
       0.03946935 0.06918517 -0.039690085 0.027902888
0000d0 8f dd 8f 3d ce 38 d4 3d b4 d9 98 3a 9d 5d 2b 3c
       0.07024681 0.10362397 0.001166156 0.010459331
0000e0 03 6d 1f bd 6c 0c 06 bd da 32 36 3c 88 76 65 3d
       -0.03892232 -0.03272669 0.011120522 0.056021243
0000f0 e8 a1 8d 3d 40 1a 5c 3d d9 8b 77 bd 3e 94 a2 bc
       0.06915647 0.05373597 -0.060436103 -0.019846078

out.weight f4 [10, 64]
000000 68 80 3f be a7 95 44 3e 77 36 00 3e 67 fb 8f be
       -0.18701327 0.19197713 0.12520777 -0.28121492
000010 93 59 8a 3d ad 1b 97 be ce 0c 34 be 69 44 f4 3d
       0.06755366 -0.29513302 -0.1758301 0.11927111
000020 7e ca 37 3d 11 43 04 be 09 08 f6 3d f8 9d 73 3d
       0.044870846 -0.12916209 0.12013251 0.059476823
000030 f8 e1 ae 3d 2b a2 1a be ee 32 bd 3b 16 45 47 be
       0.08539194 -0.15100925 0.0057738936 -0.19459948
000040 e6 2a 27 bd e2 c7 52 be a9 f6 1a 3d 71 db 55 be
       -0.040812396 -0.20584062 0.03783289 -0.20884492
000050 a3 c3 06 bd 21 39 10 3e 2c 34 36 be 2a e5 26 be
       -0.032901417 0.14084293 -0.1779334 -0.16298357
000060 1d af 08 3e 97 f4 13 be 7d 76 0a be 98 70 85 be
       0.1334805 -0.14448772 -0.13521762 -0.26062465
000070 fa b0 a0 3b a4 d6 92 3d 48 8f bb 3d 47 a0 4e bd
       0.0049039098 0.07169846 0.09158188 -0.05044582
000080 a0 99 e5 bc b1 35 21 3e 5d 4b 28 be 74 7c a8 3c
       -0.028027356 0.15743138 -0.16434999 0.020567156
000090 18 cf 8c bd 7a 24 1e 3e 91 a6 57 3d 38 e5 4f bd
       -0.068754375 0.15443602 0.052649084 -0.05075571
0000a0 17 64 f5 bd 39 9e 95 3d fb 8a 8a 3d b9 cd a3 be
       -0.11981981 0.07305569 0.0676479 -0.3199289
0000b0 fd 02 3c be 98 82 05 3e 62 29 62 3d b6 93 16 be
       -0.18360515 0.13038099 0.055215247 -0.14704785
0000c0 83 be 73 be 9b 26 02 3e 7c 23 90 bd 6d 8d e0 3d
       -0.23803143 0.1271004 -0.07038018 0.10964475
0000d0 6e 4f d5 3d de f1 94 be b9 94 c8 3d 92 14 11 bb
       0.10415541 -0.2909078 0.097939916 -0.0022137505
0000e0 ed e0 1d be a9 66 48 be 69 1f 16 be 49 6b 5c be
       -0.15417834 -0.19570412 -0.1466042 -0.21525301
0000f0 8e 6d c5 be 19 67 07 3e fc 38 3c 3e 9f 82 09 3e
       -0.38560146 0.13222922 0.18381113 0.13428734
000100 1f d7 33 3e ce 6a 8e be 81 89 1a 3e b2 7c 10 3d
       0.17562531 -0.2781586 0.15091516 0.03527517
000110 0a d6 ed 3c fa 43 4d 3e a5 61 7a 3d af a5 0e bf
       0.029032726 0.20045462 0.061128277 -0.55721563
000120 ee ef 96 3c 7c 88 f6 3d de a5 e5 bd 6c 78 38 be
       0.018424954 0.12037751 -0.11213277 -0.18014687
000130 cc 2e d5 bd 45 fd d6 bc a4 29 91 3d ee 17 25 be
       -0.104093164 -0.026243815 0.070880204 -0.1612241
000140 93 ab b9 bd 63 e1 11 3e 35 a6 c1 3d 99 12 26 be
       -0.09065928 0.14246134 0.094555296 -0.16218032
000150 8d 36 ae be 73 43 be bb c2 7c 89 be 2e 44 1b be
       -0.34025994 -0.0058063804 -0.26852995 -0.15162727
000160 f7 97 0e be e6 1b b0 3d f8 9f 84 3d 6b 6a 55 3d
       -0.13925157 0.08599071 0.06475824 0.05210344
000170 e6 02 33 3e 83 ca 0b be af 48 b3 3d 24 ad 89 3d
       0.17481574 -0.13651471 0.08754098 0.06722477
000180 61 c1 60 3d 0c 8c de bd c9 3e 15 3e fb b2 78 be
       0.05487192 -0.108665556 0.14574732 -0.24287026
000190 81 4c ea 3d d7 26 92 be 33 bf eb bd 2f 18 42 be
       0.11440373 -0.28545257 -0.11511078 -0.18954538
0001a0 d5 64 ca bd 2d 88 4d 3e f2 c7 5d 3d 22 a5 d1 bc
       -0.098825134 0.20071478 0.05414576 -0.025591437
0001b0 f3 ba 35 3e 04 6c 5c 3e b7 fa 0f be b2 a7 5e 3e
       0.17747097 0.2152558 -0.14060484 0.21743658
0001c0 44 04 3a bd ab f7 7d be e3 d7 dd bd a1 a1 53 3e
       -0.045414224 -0.24801509 -0.10832193 0.20667125
0001d0 46 3a b6 bd 16 b2 89 be 1b 36 09 be 63 ac 7a bd
       -0.088978335 -0.2689368 -0.13399546 -0.061199557
0001e0 c8 df 44 3d 02 ea f5 3d 8b ab 7a 3e ca 8b 65 be
       0.048064977 0.12007524 0.24479501 -0.22416607
0001f0 75 77 1b 3e 71 80 83 3c 1b 66 f9 bd 67 d8 08 be
       0.15182288 0.016052457 -0.12177678 -0.13363801
000200 e2 f9 09 be 8a 04 c5 3d 7f 4a fd bd 5c 7f ac 3d
       -0.13474229 0.096200064 -0.123677246 0.084227294
000210 ab 00 75 bd dd ae 11 3e 19 3b af 3d fa 97 67 bd
       -0.05981509 0.14226861 0.08556194 -0.05654142
000220 88 21 e0 3d ab 25 4c 3d fd b6 64 be 04 f2 ef 3d
       0.109438956 0.04984061 -0.2233543 0.11716083
000230 83 29 22 bd 22 7f 21 3e d5 a5 20 3e 97 61 d6 3d
       -0.03959037 0.15771154 0.1568826 0.104678325
000240 9b e0 b2 bd 9a 32 06 3e d2 24 39 3d 72 a9 a9 3d
       -0.08734246 0.1310524 0.04520113 0.08284272
000250 55 c8 a0 3d ef d6 1e 3e 66 43 de bd fa 60 5c 3d
       0.0785071 0.15511678 -0.10852699 0.05380342
000260 80 e4 04 3e 4f d7 a3 3c 7d c6 77 be 93 92 73 be
       0.12977791 0.020000128 -0.24196811 -0.23786382
000270 75 55 0e 3e 30 b6 e0 3c af e2 df bc 97 82 0f bd
       0.13899787 0.027430624 -0.02732977 -0.03503665
000280 4e 9e 16 be 73 38 8f 3d ca 59 1c be d4 a8 d3 3d
       -0.14708826 0.06993189 -0.15268627 0.10334936
000290 dd 91 d3 bd ac 50 59 3d 2d c9 1a be 08 71 07 be
       -0.103305556 0.05305545 -0.15115805 -0.13226712
0002a0 58 71 02 be f1 42 51 bd 37 2c be 3d 9e 2c 76 be
       -0.1273855 -0.05108923 0.09285777 -0.24040458
0002b0 14 79 88 bc 09 91 3c be 97 ca 8a be 45 84 40 3e
       -0.016659297 -0.18414702 -0.2710769 0.18800457
0002c0 d8 80 5a 3d 83 8a 56 3d 68 17 b6 3d 88 98 57 be
       0.05334553 0.05237819 0.08891183 -0.2105428
0002d0 6e 5c ac bd ea 06 06 be 19 9b 82 bb 2c b2 26 be
       -0.08416067 -0.13088575 -0.0039857742 -0.16278905
0002e0 d6 2f 87 be 55 bf 7d be a2 21 4f 3e 26 46 12 be
       -0.26403683 -0.24780019 0.20227674 -0.14284572
0002f0 8b 86 58 3d bc d7 37 3e d6 20 3c be 6d 75 9f 3d
       0.052862685 0.1795339 -0.18371901 0.07786069
000300 c7 b8 14 3e 22 87 14 3e 4e ac a2 be 7f b4 41 be
       0.14523612 0.14504674 -0.31772083 -0.1891651
000310 f4 f5 85 bd bb a5 ff 3d c7 0e 88 3d 5f 51 82 be
       -0.065410525 0.124827825 0.066434436 -0.25452706
000320 fd dd 2d 3e 39 e3 2b 3e 15 cf 3e be be eb 00 bd
       0.16979213 0.16785897 -0.18633683 -0.03147482
000330 94 5a 61 be db af 09 3e cd 39 0a 3c 5e 3c 1b bd
       -0.22007209 0.1344599 0.008436632 -0.037899368
000340 96 5e 96 bd ea 5c 72 be 8d 53 ef bd 3f 62 02 3e
       -0.073422596 -0.23668256 -0.11685858 0.1273279
000350 dd 53 22 bd f6 e7 d3 3d 46 5f 0b 3e 11 97 6f bd
       -0.03963076 0.103469774 0.13610563 -0.058493678
000360 49 a1 3c 3d 76 c5 fe bc 99 a3 57 3e d8 a2 31 be
       0.04605225 -0.031100016 0.21058501 -0.17347276
000370 49 77 36 3e 20 70 61 bd 15 5e 16 be 96 3e 08 bd
       0.17818941 -0.05503857 -0.14684327 -0.03326281
000380 37 48 0b 3e cf 8c d9 bd 89 d8 36 3d f4 49 fc bd
       0.13601767 -0.1062256 0.044640098 -0.12318793
000390 ce f7 03 be 6c 96 ee 3b 2d f8 d0 3c 86 4c d9 3d
       -0.12887499 0.0072811153 0.025508964 0.10610299
0003a0 db c5 ff 3b 3d 4d 7e be 99 4d 1f be d1 0c c0 3d
       0.0078055686 -0.24834152 -0.15556945 0.093774445
0003b0 e7 71 68 be 06 2a cc 3d 61 4b 21 be a4 03 27 bd
       -0.226997 0.09968953 -0.15751411 -0.040774956
0003c0 01 16 97 3d 98 56 85 bb 53 07 5c be a1 34 88 3d
       0.07377244 -0.0040691607 -0.21487169 0.06650663
0003d0 21 d4 50 be ca 86 c9 3d 04 e2 9e bd 65 e0 28 bd
       -0.20393421 0.09840162 -0.07757953 -0.041229624
0003e0 b7 03 33 be da af 66 be a3 d2 23 be c3 d8 8c bd
       -0.17481886 -0.2252802 -0.1599832 -0.068772815
0003f0 ad 52 f4 3d cc f5 32 be 25 81 18 3d d9 0e 57 3d
       0.11929832 -0.17476577 0.037232537 0.052504394

out.bias f4 [10]
000000 aa 7d db bd b1 22 22 3d ec f0 38 be 48 3f 83 3d
       -0.10717328 0.039583866 -0.18060654 0.06408554
000010 68 25 7f 3d 35 d3 d4 3d 67 58 f9 bc 45 92 f6 bc
       0.062291533 0.10391847 -0.030437661 -0.030099044
000020 78 23 2f bd 2f a9 27 3e
       -0.042758435 0.16373132
